model2.pt (torch, 521350 bytes, 35 tensors)

word_embeddings.weight f4 [516, 200]
0	0x3cb33016	0.021873515
1	0xbe25b28e	-0.16181394
2	0xbeb8b303	-0.36074075
3	0x3e874e08	0.2642672
4	0xbe7de009	-0.24792494
5	0x4015fe0b	2.3436306
6	0xbf1819c8	-0.5941434
7	0x3feaa7d2	1.8332465
8	0xbe8fdc5a	-0.28097802
9	0xbeb0effc	-0.34558094
10	0xbf9f77eb	-1.2458471
11	0x3fa9bec2	1.326134
12	0xbf56169e	-0.8362826
13	0x3ec23e8e	0.3793835
14	0x3f9fe241	1.2490922
15	0xbe97dfc0	-0.29662895
16	0x3ea0eebb	0.31432137
17	0x3fc61165	1.5474058
18	0x3eaefd0c	0.34177434
19	0xbf237192	-0.6384517
20	0xbe74eb35	-0.2391785
21	0x3ea0a7fc	0.31378162
22	0xbef7b0f3	-0.4837719
23	0x3eff2217	0.49830696
24	0x3edf8e7d	0.43663397
25	0xbf361a73	-0.7113411
26	0x3f1e68fb	0.6187894
27	0x3f4a0aac	0.78922534
28	0xbf411431	-0.75421435
29	0x3f94fbfd	1.1639401
30	0xbce0c67b	-0.027438393
31	0xbf380cb1	-0.71894366
32	0xbf8b9b45	-1.090676
33	0x3ee7103c	0.45129573
34	0x3f523827	0.8211693
35	0xbf5509d1	-0.83218104
36	0x403c7843	2.9448402
37	0xbea4b90b	-0.32172427
38	0x3f95ba5f	1.1697501
39	0x3f6cf66b	0.92563504
40	0xbeae6e27	-0.34068415
41	0xbfbffa60	-1.4998283
42	0x3fe37c0e	1.7772233
43	0x3ca8e380	0.020616293
44	0xbf8d26d3	-1.1027473
45	0x3e61299b	0.21988527
46	0x3f448a67	0.76773685
47	0x3eebcb82	0.46053702
48	0xbef0c7f5	-0.47027555
49	0xbc288a5c	-0.010286894
50	0xc01a4cd7	-2.41094
51	0xbf871845	-1.0554281
52	0xbf66c418	-0.90142965
53	0x3fcf0954	1.6174722
54	0x3e3db101	0.18524553
55	0x3f539ea9	0.8266397
56	0xbf83e97f	-1.0305632
57	0xbe5fce52	-0.21856049
58	0x3f70ad82	0.9401475
59	0xc00413c8	-2.0637074
60	0x3f95a17e	1.1689909
61	0xbe3264bb	-0.17421238
62	0x3f51ca1c	0.8194902
63	0x3f7dd901	0.99159247
64	0xbfd221b5	-1.6416537
65	0x3d938f99	0.072051235
66	0x3fe14eb4	1.7602143
67	0xbe8ec3a4	-0.27883637
68	0x3ed5140e	0.41616863
69	0xbf8438a2	-1.0329783
70	0x3e8273bd	0.25478926
71	0xbf9b2656	-1.2121074
72	0x401798cc	2.368701
73	0xbfb11df9	-1.3837272
74	0xbf02b026	-0.5105003
75	0xbf1d857f	-0.61531824
76	0xc0015353	-2.0207107
77	0xc00c8ee9	-2.1962225
78	0xbc824b4c	-0.015905045
79	0xbf416eda	-0.7555977
80	0xbf1fe915	-0.6246503
81	0x3fcad39d	1.5845829
82	0xbf8570c8	-1.0425043
83	0xbe4f00bd	-0.20215125
84	0x3f71c230	0.9443693
85	0xbe511299	-0.2041725
86	0x3fbf1bcc	1.4930358
87	0x3fb11913	1.3835777
88	0x3d981453	0.074257515
89	0xbf512fac	-0.81713367
90	0xbeeb597e	-0.45966715
91	0x3ef359c5	0.47529426
92	0xbfdbb5e0	-1.7164879
93	0xbfb0c5de	-1.3810384
94	0x3ff2cb97	1.8968381
95	0x3fa9f7e9	1.3278781
96	0x3f61ab40	0.8815193
97	0xbe5c5e93	-0.21520452
98	0xbe35bc14	-0.17747527
99	0xbe9f35e7	-0.31095812
100	0x3ec60240	0.38673592
101	0x3fbc91f9	1.4732047
102	0xbfb97d88	-1.4491434
103	0xbfa784ff	-1.3087462
104	0xbf6dcef3	-0.92893904
105	0x3c4444f2	0.0119793285
106	0xbf55ad7f	-0.8346786
107	0x3f84dfc7	1.0380791
108	0xbf816ff2	-1.0112288
109	0x3fbebb75	1.4900957
110	0xbf3e63f9	-0.74371296
111	0x3ed79d35	0.42112127
112	0xbe9f90a4	-0.3116504
113	0xbf629fb6	-0.8852495
114	0x3f19fc49	0.6015058
115	0xbfd05cfe	-1.6278379
116	0xbf651e4c	-0.89499354
117	0xbe8bcb76	-0.27303666
118	0x3eb138f0	0.34613752
119	0xbfcc7512	-1.5973227
120	0x3fab069e	1.3361394
121	0x3d0c5273	0.034258317
122	0xbe32f439	-0.17475976
123	0xbf02076e	-0.50792587
124	0xbbe1abd8	-0.0068869404
125	0xbf789868	-0.97107553
126	0x3f866199	1.0498534
127	0x4017013f	2.359451
128	0xbf02fe15	-0.5116895
129	0x3e1e71cc	0.15473098
130	0xbf96a893	-1.1770195
131	0x3df09519	0.11747188
132	0xbf6ddd01	-0.9291535
133	0xbebc57a1	-0.36785606
134	0xbf412661	-0.75449187
135	0xbe2381b5	-0.15967448
136	0xbe2649d4	-0.162391
137	0x3ebbc46b	0.36673293
138	0x3f0792b0	0.529582
139	0xbf9dbf64	-1.2324033
140	0xc00f6457	-2.2404993
141	0x3f95814a	1.1680081
142	0x3f79d15f	0.975851
143	0xbf80dd60	-1.0067558
144	0x3e4a85f1	0.19777657
145	0xc007c882	-2.121613
146	0xbd0573c5	-0.03258111
147	0x3f3601d8	0.71096563
148	0xbfb05fad	-1.3779198
149	0x3ff01558	1.8756514
150	0x3f709e1d	0.9399126
151	0x3ea77c86	0.3271219
152	0x3f18791b	0.5955979
153	0x3f4eab7c	0.80730414
154	0xbf8149ef	-1.0100688
155	0x3e712558	0.23549402
156	0x3efb7fda	0.4912098
157	0x3f0e2d67	0.5553803
158	0xbf8bf659	-1.0934554
159	0xbf970857	-1.179942
160	0xbf79e12f	-0.9760923
161	0x3f4128d9	0.75452954
162	0xbf4dbf88	-0.8037038
163	0xbe876431	-0.26443627
164	0xbfd988c0	-1.6994858
165	0xbe3b0df1	-0.18267037
166	0xbe362ccb	-0.17790525
167	0xbf068a5d	-0.52554876
168	0xbf8328af	-1.0246791
169	0xbf0ea396	-0.5571836
170	0x4000ffb8	2.0156078
171	0x3f77a414	0.9673474
172	0x3f8eed6e	1.1166208
173	0x3ef45b24	0.47725785
174	0xbef68c09	-0.48153713
175	0x3fbac868	1.4592409
176	0xbf1f895c	-0.6231897
177	0x3e7737a0	0.24142313
178	0xbeb7356c	-0.35782945
179	0xbedadf38	-0.42748427
180	0xbf57fa71	-0.8436652
181	0xbf07b937	-0.5301699
182	0x3f13a04a	0.57666457
183	0xbf9150e4	-1.1352811
184	0x3f3e3ad5	0.7430852
185	0x3fac69cb	1.3469785
186	0x3f4fe4a0	0.8120823
187	0x3f0c77d5	0.5487035
188	0xbdad35d3	-0.08457532
189	0x3d69c85d	0.057075847
190	0xbe91a63a	-0.28447133
191	0xbf8e7b19	-1.1131316
192	0xbf2478bb	-0.6424672
193	0x3d1d132b	0.038348358
194	0xbe886819	-0.2664192
195	0xbfa0aa4e	-1.2551973
196	0x3e2eea19	0.17081489
197	0x3f08b240	0.5339699
198	0xc039754c	-2.8977842
199	0xbedd4bfb	-0.4322203
200	0x3eedcf59	0.46447256
201	0xbf73aadd	-0.9518259
202	0x3e60a018	0.21936071
203	0xbf022c06	-0.50848424
204	0x3e60b02e	0.21942207
205	0x3e99ad5d	0.30015078
206	0x3ee9322d	0.45546094
207	0xbea02269	-0.31276253
208	0xbfcd5e6a	-1.6044438
209	0x3f09a7d4	0.5377171
210	0xbf9263fd	-1.1436764
211	0xbefad052	-0.4898706
212	0xbf71b52c	-0.9441707
213	0x3d9f8689	0.077893324
214	0x3f4e01d1	0.8047152
215	0xbe845be8	-0.2585137
216	0xbfc5a941	-1.5442277
217	0x3f0a10da	0.53931963
218	0x3fb1312a	1.3843129
219	0xbdf58137	-0.119875364
220	0x3e91c9df	0.28474328
221	0x3f67f0fc	0.9060209
222	0xbbb9e340	-0.0056728423
223	0xbe309934	-0.17245942
224	0xbff182e8	-1.8868074
225	0xbfffbad0	-1.9978886
226	0xbf7429d4	-0.95376325
227	0x3eec9e5a	0.46214563
228	0xbf3669ed	-0.7125538
229	0xbf09534e	-0.5364274
230	0x3fa2ea2b	1.2727712
231	0xbf9d65d5	-1.2296702
232	0x3f9dcd75	1.2328326
233	0xbf06021b	-0.5234696
234	0xbf80b9ea	-1.0056736
235	0xbf96e247	-1.1787804
236	0xbe972bde	-0.29525656
237	0xbf94a2a9	-1.161214
238	0x3ef419fe	0.4767608
239	0x3ed29af6	0.4113385
240	0xbf0cf635	-0.5506318
241	0x40086085	2.130891
242	0x3ee217a9	0.44158676
243	0xbfbac8f8	-1.4592581
244	0xbf541eb4	-0.8285935
245	0x3ef833df	0.48477075
246	0xbfad9583	-1.3561252
247	0x4019777d	2.397918
248	0xbfd359d0	-1.6511784
249	0xbeb84f92	-0.35998207
250	0xc008ddd0	-2.1385384
251	0xbe814881	-0.2525063
252	0x3ea06415	0.31326357
253	0xbf2e9b97	-0.6820616
254	0x3e9d685a	0.30743676
255	0x3f78627f	0.97025293

lstm.weight_ih_l0 f4 [40, 200]
0	0x3f0b5336	0.54423845
1	0xbf0653e9	-0.52471787
2	0x3cd65b45	0.026166568
3	0xbe3091bc	-0.17243093
4	0xbeb748b3	-0.35797653
5	0xbdabf42f	-0.08396184
6	0x3e4a53f3	0.19758587
7	0x3e8c303b	0.27380547
8	0xbec83535	-0.39103094
9	0xbdac5494	-0.084145695
10	0x3dc99519	0.09842891
11	0x3d8644f7	0.06556123
12	0xbcd50175	-0.026001671
13	0xbdf0500a	-0.11734016
14	0xbed91668	-0.42399907
15	0xbde4fe4b	-0.11181315
16	0xbea7c13c	-0.32764614
17	0x3d5276eb	0.05138294
18	0x3deadab3	0.11467495
19	0xbe5a82fb	-0.21339028
20	0x3e0ce1e1	0.13758041
21	0x3e199e11	0.15001704
22	0x3c9395ef	0.01801583
23	0x3deca932	0.11555709
24	0x3e185b6c	0.14878625
25	0xbed2401b	-0.41064534
26	0xbe49134d	-0.19636269
27	0xbe21d6fb	-0.15804665
28	0x3dc08550	0.09400427
29	0xbd21e151	-0.03952152
30	0x3e165235	0.14679797
31	0xbdc61c56	-0.096733734
32	0xbe50703f	-0.20355318
33	0xbf34200e	-0.7036141
34	0x3efecc58	0.49765277
35	0xbecbe8c7	-0.39826033
36	0xbe94539f	-0.28970048
37	0x3ddfff37	0.1093735
38	0xbd6cafb6	-0.05778476
39	0xbdfd201c	-0.1235964
40	0x3e6f33ca	0.233596
41	0xbedaf39e	-0.4276399
42	0xbee0089e	-0.43756574
43	0xbd5da2fd	-0.054110516
44	0x3e884dc9	0.26621845
45	0x3f0ce10e	0.55030906
46	0xbeb967fa	-0.3621214
47	0xbde795e9	-0.1130789
48	0xbe301c2b	-0.17198245
49	0xbe751b23	-0.23936133
50	0x3d17974d	0.037009526
51	0xbef7ada4	-0.48374665
52	0x3ec268e5	0.37970653
53	0x3e91a428	0.28445554
54	0x3ed04e0d	0.40684548
55	0xbe950c21	-0.29110816
56	0xbc8dd633	-0.017314052
57	0xbe62209d	-0.22082753
58	0xbe19d93b	-0.15024273
59	0x3f11e1e5	0.5698531
60	0xbe55a021	-0.20861866
61	0xbe300c9d	-0.17192312
62	0xbd96f47b	-0.0737085
63	0xbe174853	-0.14773683
64	0xbdf30a57	-0.118672065
65	0xbd9b9943	-0.07597592
66	0xbe2b4128	-0.16724074
67	0xbccb9889	-0.024853008
68	0x3f01cceb	0.50703305
69	0x3ec8925a	0.39174157
70	0xbc96fce9	-0.018431144
71	0xbe897a6b	-0.2685121
72	0x3eae6fc0	0.34069633
73	0x3e541e8b	0.20714776
74	0xbdfd1c20	-0.1235888
75	0x3e0a96be	0.13534066
76	0x3e8d3aa0	0.2758379
77	0xbc47fed2	-0.01220675
78	0x3bcfa0b5	0.0063362964
79	0xbc0b7714	-0.008512277
80	0xbe8e3dab	-0.27781424
81	0x3dda254e	0.106516466
82	0x3ec2355d	0.37931338
83	0xbdf8f240	-0.121555805
84	0x3ef8b20a	0.48573333
85	0x3ea681a0	0.3252077
86	0x3e27ca85	0.16385849
87	0xbe951b98	-0.29122615
88	0xbe00d6b2	-0.125819
89	0xbe16b38b	-0.14716928
90	0xbe332c68	-0.17497408
91	0xbdefa8fe	-0.117021546
92	0x3eb27643	0.34855852
93	0xbd76bb7a	-0.060237385
94	0x3e0d88f6	0.13821778
95	0x3e38a338	0.18031013
96	0x3dd538df	0.10411238
97	0x3df36efb	0.11886402
98	0xbe033fd6	-0.1281732
99	0x3dd82d5a	0.10555525
100	0x3ed146fe	0.40874475
101	0xbee5cd37	-0.4488313
102	0xb9165735	-0.00014337602
103	0x3efd890c	0.4951862
104	0x3f049fc5	0.5180629
105	0xbe62c5da	-0.22145787
106	0x3dc84faf	0.097808234
107	0xbcb88787	-0.022525562
108	0xbd0fe403	-0.03512956
109	0xbe8af88f	-0.2714276
110	0x3e761946	0.24033079
111	0xbdf9d58d	-0.12198935
112	0xbe357a18	-0.17722356
113	0x3e6b43fb	0.22975151
114	0xbe8d726d	-0.27626362
115	0x3d117a73	0.035517167
116	0xbe04b7ed	-0.12960787
117	0x3ec70c03	0.38876352
118	0x3e8095b8	0.25114226
119	0xbe21c275	-0.15796836
120	0xbeaeefd0	-0.34167337
121	0x3ea0de1b	0.31419453
122	0x3ebbba25	0.36665455
123	0xbea2ca64	-0.31795037
124	0x3dd70b18	0.10500163
125	0xbe2c0253	-0.16797762
126	0xbd58785c	-0.05284916
127	0xbe0fc816	-0.1404117
128	0xbe61908c	-0.22027797
129	0xbf08c408	-0.5342412
130	0xbe083147	-0.13300048
131	0x3c4fd948	0.012686081
132	0xbde9d144	-0.114168674
133	0x3c951cf6	0.018202286
134	0x3c3021f1	0.01075028
135	0xbea18901	-0.31549838
136	0xbc24074a	-0.0100115035
137	0x3f274c6a	0.65350974
138	0xbd8979a4	-0.06712654
139	0x3e13d4d4	0.14436656
140	0x3dcb6a7c	0.0993242
141	0x3e19327e	0.14960667
142	0x3f1b741c	0.60724044
143	0x3ea83410	0.3285222
144	0xbe9a10de	-0.30090994
145	0x3e73ebb8	0.23820388
146	0xbece6b84	-0.40316403
147	0x3e9460ee	0.289802
148	0x3f246960	0.6422329
149	0x3ec7148b	0.3888286
150	0x3e12fffc	0.14355463
151	0x3ec0735f	0.3758802
152	0xbdeb5df8	-0.114925325
153	0x3f2cdbf7	0.6752314
154	0xbf046e4b	-0.51730794
155	0xbd34e5dc	-0.044164523
156	0x3adfaef7	0.0017065693
157	0xbdc1a8f6	-0.09456055
158	0xbdce0224	-0.10059002
159	0xbd5e1267	-0.05421677
160	0xbf2eb2c4	-0.68241525
161	0xbe5fbe8d	-0.21850033
162	0x3e22d415	0.15901215
163	0x3e93df3a	0.28881246
164	0x3ec5b3f2	0.3861385
165	0xbe40b144	-0.18817621
166	0x3d9be045	0.076111354
167	0x3ea13f90	0.31493807
168	0xbdc55667	-0.096356206
169	0x3e2eeaa6	0.17081699
170	0x3e8b6639	0.27226427
171	0xbdba94a5	-0.09110383
172	0x3ea59b8d	0.32345238
173	0xbe29e14b	-0.16589849
174	0xbeb9bfc4	-0.36279118
175	0x3ecd23d6	0.40066403
176	0xbe9bf778	-0.3046224
177	0x3f5a4ca7	0.8527321
178	0x3df581eb	0.119876705
179	0x3eb20517	0.34769508
180	0x3c288319	0.010285162
181	0xb95471c5	-0.00020260278
182	0xbeb9c5e7	-0.362838
183	0x3e44878c	0.19192332
184	0x3ef20812	0.47271782
185	0x3e9b6b23	0.30355176
186	0x3d453ea3	0.04815544
187	0x3ea4a543	0.32157335
188	0x3dec2b42	0.11531688
189	0xbe82586a	-0.2545808
190	0x3d04a780	0.032386303
191	0xbe50e755	-0.20400746
192	0xbd581c0a	-0.052761115
193	0xbb95ba02	-0.004569293
194	0x3d51b510	0.051198065
195	0xbde40c9a	-0.11135216
196	0x3eae35ab	0.3402532
197	0xbe5d7856	-0.21627936
198	0xbd447a6d	-0.047968317
199	0xbe858023	-0.26074323
200	0x3e3b7ca1	0.18309261
201	0xbdfa2b5b	-0.12215301
202	0xbe558ede	-0.20855281
203	0x3df5b7cf	0.11997949
204	0x3e704e47	0.2346736
205	0x3c076cd9	0.008265697
206	0x3dc87b30	0.09789121
207	0xbde43d80	-0.11144543
208	0xbdf15021	-0.117828615
209	0xbe847c59	-0.2587612
210	0x3e46176d	0.19344874
211	0x3e32772a	0.1742827
212	0x3dd83440	0.10556841
213	0xbe84c682	-0.259327
214	0xbd854d29	-0.06508858
215	0xbbcf1b38	-0.0063203834
216	0xbd1838c8	-0.037163526
217	0x3ef5a226	0.47975272
218	0x3f037270	0.5134649
219	0x3d77de0b	0.06051449
220	0x3e9de292	0.30836922
221	0xbdb8f03c	-0.09030196
222	0xbeb08315	-0.34475008
223	0x3e33423c	0.17505735
224	0x3e845ccf	0.25852057
225	0xbb3ea1b6	-0.0029088086
226	0xbe74537d	-0.23859973
227	0x3d41de9d	0.04733144
228	0xbebdeb09	-0.3709338
229	0xbe8e68bf	-0.2781429
230	0xbda75e19	-0.081722446
231	0xbe4fda9b	-0.20298235
232	0x3dd18b21	0.10231615
233	0xbdb1776f	-0.08665358
234	0x3b275aca	0.0025536292
235	0xbebe7d8e	-0.37205166
236	0x3e573821	0.21017505
237	0x3ec8bca3	0.39206418
238	0xbed88375	-0.42287794
239	0xbd357279	-0.044298623
240	0x3e6b1dd5	0.22960599
241	0x3e222608	0.1583482
242	0x3e1fcd48	0.15605652
243	0xbd8147e4	-0.0631254
244	0x3dc38b95	0.095481075
245	0x3e6ec19e	0.23316047
246	0xbf215a39	-0.63028294
247	0x3ea1999a	0.315625
248	0x3cbc7a66	0.023007583
249	0x3eadb073	0.33923683
250	0xbdd6d27a	-0.10489364
251	0x3eeb634c	0.45974195
252	0x3e2ba0c0	0.1676054
253	0xbd88d4e4	-0.06681231
254	0xbf09584a	-0.53650343
255	0x3edd80a3	0.43262205

lstm.weight_hh_l0 f4 [40, 10]
0	0x3e3844c8	0.17994988
1	0xbcdffbf9	-0.02734183
2	0x3f05bf12	0.52244675
3	0xbb904c64	-0.0044036377
4	0xbea065b9	-0.31327608
5	0x3e42c92c	0.19022053
6	0xbe218836	-0.15774617
7	0x3eb22ab7	0.34798214
8	0x3ebad484	0.36490262
9	0x3d7e4b9a	0.062083818
10	0xbe046e55	-0.12932713
11	0xbd2541da	-0.040346004
12	0xbd9f32b1	-0.077733405
13	0xbe39d889	-0.18149008
14	0x3e3915e2	0.18074754
15	0x3d1a5c34	0.037685588
16	0x3e516f2a	0.20452562
17	0xbec8414f	-0.39112327
18	0xbc21f983	-0.009886148
19	0x3ec735c5	0.3890821
20	0xbd912868	-0.07087785
21	0x3ead48b0	0.3384452
22	0x3e4102ea	0.18848768
23	0xbeae9bc0	-0.34103203
24	0xbef1003c	-0.4707049
25	0x3ebce525	0.36893573
26	0x3eb89267	0.36049196
27	0xbe92f8be	-0.287054
28	0x3ee2b5a7	0.44279215
29	0xbeaf3c06	-0.34225482
30	0x3e65a37d	0.22425647
31	0x3e163f03	0.14672475
32	0x3eec89fb	0.4619902
33	0x3edafbf8	0.42770362
34	0xbed0b9dd	-0.40766802
35	0xbe6ea996	-0.2330688
36	0x3dfbec3a	0.12300916
37	0xbedbd337	-0.42934582
38	0x3e48f5eb	0.1962506
39	0x3bf9ddf5	0.0076253363
40	0xbf006218	-0.5014968
41	0xbe167fb9	-0.1469716
42	0x3ed373d0	0.41299295
43	0xbede20d5	-0.43384424
44	0x3f36acde	0.71357524
45	0x3e0d0cf4	0.13774472
46	0xbeadd515	-0.3395163
47	0xbdf5a9f9	-0.1199531
48	0x3e339b92	0.17539814
49	0xbe989d99	-0.29807737
50	0x3ea422f8	0.3205793
51	0xbe6d57bb	-0.23177998
52	0x3ee8e2b7	0.4548547
53	0x3ea886ad	0.3291525
54	0x3e8151ff	0.2525787
55	0xbe7695f4	-0.2408064
56	0xbe6fe50c	-0.23427218
57	0xbf0679db	-0.52529687
58	0xbef7057a	-0.48246366
59	0x3de127d8	0.10993928
60	0x3e57c934	0.21072847
61	0x3ecd2cc1	0.40073207
62	0x3ec3d13f	0.3824558
63	0xbe9ecba3	-0.31014737
64	0xbe3b825c	-0.18311447
65	0xbe1de179	-0.15418042
66	0xbe73a930	-0.23795009
67	0xbebe23f2	-0.371368
68	0x3ec524bf	0.38504598
69	0x3f0287ac	0.5098827
70	0xbe3825fb	-0.17983238
71	0x3cc370d1	0.023857506
72	0xbe6ff488	-0.23433125
73	0xbe5fad5e	-0.21843478
74	0xbdc2f17b	-0.09518715
75	0x3e87d880	0.26532364
76	0x3edba8fc	0.42902362
77	0xbe89bc61	-0.26901534
78	0xbdf2b471	-0.11850823
79	0x3eb9918c	0.36243856
80	0xbe8d59d6	-0.27607602
81	0x3f1488d7	0.580213
82	0xbe2fc57f	-0.17165183
83	0x3deda3b7	0.11603492
84	0xbeba5569	-0.36393288
85	0x3c9b8bdd	0.01898759
86	0x3d9fd7bb	0.07804819
87	0xbe383e97	-0.17992626
88	0x3eafdd04	0.3434831
89	0xbd2513c4	-0.040302053
90	0xbe8fc081	-0.28076556
91	0x3dccc426	0.0999835
92	0x3c289cc2	0.01029128
93	0xbe1fd1d8	-0.15607393
94	0xbdcab8cf	-0.09898531
95	0xbe15c5ef	-0.14626287
96	0xbdaaf9bb	-0.083484136
97	0x3dbb48a1	0.09144712
98	0x3d193111	0.03740031
99	0xbe1ed7f9	-0.15512075
100	0xbed8a14e	-0.42310566
101	0xbd9e66be	-0.0773444
102	0xbe9da027	-0.3078625
103	0xbdeadeb2	-0.11468257
104	0xbc00eb32	-0.007868575
105	0x3d65388b	0.055962127
106	0x3ea51df1	0.32249406
107	0x3d4e18c2	0.05031658
108	0xbdfbcf07	-0.12295347
109	0x3e053b00	0.13010788
110	0x3ee70067	0.45117494
111	0xbe419aaf	-0.18906663
112	0x3d9308eb	0.07179435
113	0xbebade42	-0.36497694
114	0xbe7485fd	-0.23879237
115	0x3ee78237	0.45216534
116	0x3e0546b2	0.1301525
117	0x3e6e8706	0.23293695
118	0x3ead91d1	0.33900312
119	0x3e292e1c	0.16521496
120	0xbf171a38	-0.5902438
121	0x3ef30c73	0.47470436
122	0x3e6ca16b	0.23108451
123	0xbccf7e65	-0.025328824
124	0x3e726f9e	0.23675391
125	0xbee0600c	-0.43823278
126	0x3dc0e368	0.09418374
127	0xbefa5ecf	-0.48900458
128	0xbe6d847a	-0.23195067
129	0xbdb7cb03	-0.08974268
130	0x3e6d614b	0.23181646
131	0x3ef082a1	0.46974662
132	0x3d906e98	0.07052344
133	0x3e58ba70	0.2116487
134	0x3eacce9c	0.3375138
135	0x3ed3cb2a	0.4136594
136	0x3d248c8c	0.0401731
137	0xbd8336e4	-0.06406954
138	0x3f0f6a32	0.56021416
139	0xbea70091	-0.3261762
140	0x3da1a099	0.0789196
141	0x3c30090c	0.010744344
142	0x3e424b5f	0.18974064
143	0xbe57e294	-0.21082526
144	0x3e7b4c32	0.24540785
145	0x3f059541	0.5218087
146	0xbc071217	-0.008244059
147	0xbec3c60b	-0.38237032
148	0x3d0f8225	0.035036225
149	0xbcf9aa38	-0.030476674
150	0x3e97f19a	0.29676515
151	0x3de433e3	0.11142709
152	0x3ef9afb2	0.48766857
153	0xbf515ba8	-0.8178048
154	0xbe9680e6	-0.29395217
155	0xbe0953ba	-0.13410845
156	0x3e074c89	0.1321279
157	0xbe9f708c	-0.31140554
158	0x3eaa2b44	0.33236134
159	0x3d60fc68	0.054928213
160	0x3dcc5e4a	0.09978922
161	0xbe0689c5	-0.13138492
162	0x3d7a54d9	0.061116073
163	0x3ee1678e	0.44024318
164	0xbd945457	-0.07242649
165	0xbe0b4cf6	-0.13603577
166	0xbe501bdc	-0.20323128
167	0x3ef6eee8	0.48229146
168	0xbd28a5e9	-0.04117385
169	0x3bb5912a	0.0055409865
170	0xbd2edcdb	-0.042691093
171	0xbd327e54	-0.043577507
172	0x3e94592d	0.28974286
173	0xbecbbfca	-0.3979476
174	0xbf0369e0	-0.5133343
175	0x3d5479dd	0.05187403
176	0x3e88e1d0	0.2673478
177	0x3f1d6954	0.6148884
178	0x3f18c0d6	0.59669244
179	0xbd213666	-0.03935852
180	0x3e933858	0.28753924
181	0xbe22823e	-0.15869996
182	0x3e2fa86d	0.17154093
183	0xbecb494b	-0.39704356
184	0xbf28118b	-0.6565177
185	0x3ee2358b	0.44181475
186	0xbd542d61	-0.05180109
187	0x3ead27d3	0.33819446
188	0xbd2d371c	-0.042288885
189	0xbcdf7fdc	-0.027282648
190	0x3f57f899	0.84363705
191	0x3e8d4933	0.2759491
192	0x3cbafb6d	0.022824967
193	0xbf02e2d9	-0.5112739
194	0x3ef6a032	0.48169094
195	0xbe958ae6	-0.29207534
196	0xbe17bb84	-0.14817625
197	0xbe00fb1a	-0.12595788
198	0x3ed9c9ba	0.42536718
199	0x3e4eaf75	0.20184119
200	0xbe9b5751	-0.30340055
201	0x3e1c420b	0.15259568
202	0xbdb70c7b	-0.08937927
203	0x3d15bdf2	0.0365581
204	0xbe3a6ed9	-0.18206348
205	0x3c50a739	0.0127351815
206	0x3c83e652	0.016101036
207	0xbe94a10b	-0.29029116
208	0xbe4dff09	-0.2011682
209	0xbe4a4cb2	-0.1975582
210	0xbd88643e	-0.06659745
211	0xbe8fd248	-0.2809012
212	0xbde80f89	-0.11331088
213	0xbd7e3be3	-0.06206883
214	0xbece3d11	-0.40280965
215	0x3dac2d03	0.08407023
216	0x3d39f7dd	0.045402396
217	0xbdf87f05	-0.12133602
218	0x3eacf223	0.33778486
219	0x3db1d4ba	0.086831525
220	0xbcf9f291	-0.030511172
221	0xbf138e0e	-0.57638633
222	0xbee7699c	-0.4519776
223	0x3e744340	0.23853779
224	0xbdf13fec	-0.1177977
225	0xbece91cf	-0.40345618
226	0x3dd1994d	0.10234318
227	0x3c670e60	0.014102548
228	0xbc4b7bc6	-0.012419647
229	0x3ef386d4	0.47563803
230	0x3e598950	0.21243787
231	0x3e2c4fa6	0.16827258
232	0xbe14761f	-0.14498185
233	0xbd897794	-0.06712261
234	0xbe3a0c11	-0.18168665
235	0x3dc3e418	0.0956499
236	0x3e33ceec	0.17559403
237	0xbcc6a1c6	-0.024247061
238	0xbddd9043	-0.10818531
239	0x3eb915ac	0.36149347
240	0x3d6541e8	0.055971056
241	0xbe32844f	-0.17433284
242	0x3d67c0b1	0.05658025
243	0xbe368ac7	-0.17826377
244	0xbe319f18	-0.17345846
245	0xbc72ad2a	-0.014811793
246	0x3e7f97b3	0.24960212
247	0xbd9fa247	-0.07794624
248	0xbe1eab18	-0.15494955
249	0x3e6e7e0c	0.2329027
250	0xbe79a8c8	-0.24380791
251	0x3a9a0b14	0.0011752569
252	0x3d43dbf9	0.047817204
253	0x3e996bd8	0.2996509
254	0x3e8170f7	0.25281498
255	0xbe8896e3	-0.26677617

lstm.bias_ih_l0 f4 [40]
0	0xbe28e32d	-0.1649291
1	0xbea062c4	-0.31325352
2	0xbe8458d8	-0.25849032
3	0x3e253e07	0.16136943
4	0x3e88d6ca	0.2672637
5	0x3de972a6	0.113988206
6	0xbe824ab7	-0.25447628
7	0x3ef6dfd2	0.48217636
8	0x3d52441d	0.05133449
9	0x3e9cdf61	0.30639175
10	0x3d88c065	0.06677321
11	0xbe940f64	-0.28917992
12	0xbd1329d5	-0.035928566
13	0xbeb4c451	-0.35306028
14	0xbccb6a0d	-0.024830842
15	0xbf192f01	-0.5983735
16	0xbe2a71b0	-0.16644931
17	0xbeb455b1	-0.35221627
18	0xbef7bbe6	-0.48385543
19	0xbe34bb60	-0.17649603
20	0xbed48bd2	-0.41512924
21	0xbe89aed3	-0.26891193
22	0xbe67af8d	-0.22625561
23	0x3e0d94b1	0.13826253
24	0x3e4dd9d9	0.20102634
25	0xbe9d8789	-0.30767468
26	0x3d410583	0.047124397
27	0x3c37e3db	0.011223759
28	0xbf07ba5d	-0.5301874
29	0xbbf817da	-0.0075712027
30	0x3e5f40ed	0.21802111
31	0xbed48a24	-0.41511643
32	0x3e005f43	0.1253634
33	0xbecb3608	-0.3968966
34	0xbd28763a	-0.041128375
35	0xbe3cfa8a	-0.18454948
36	0xbeada56b	-0.33915266
37	0x3e9dfe3f	0.30858037
38	0xbe46c522	-0.19411138
39	0xbe93e8eb	-0.2888864

lstm.bias_hh_l0 f4 [40]
0	0x3dc412df	0.09573912
1	0xbe19b87c	-0.15011781
2	0xbf2128f3	-0.6295311
3	0xbe9284d6	-0.2861697
4	0xbe501c30	-0.20323253
5	0x3f05f03d	0.523197
6	0xbe637f76	-0.22216591
7	0x3f0c325a	0.5476433
8	0xbdfb085b	-0.12257453
9	0x3e9af98f	0.30268523
10	0xbe3ef1da	-0.18646947
11	0xbe7b8feb	-0.24566619
12	0xbe1e1b6a	-0.15440145
13	0xbec3e2fd	-0.38259116
14	0xbeca5b25	-0.39522663
15	0xbe8bb49c	-0.27286232
16	0xbe1c6fd0	-0.15277028
17	0xbf145848	-0.57947206
18	0xbec576a4	-0.38567078
19	0xbf072181	-0.527855
20	0xbf0bb17f	-0.5456771
21	0xbf1bad81	-0.6081162
22	0xbe98d558	-0.29850268
23	0xbd6eca45	-0.058298368
24	0x3cd2ddff	0.025740622
25	0x3dda9a96	0.10674016
26	0xbefb11e6	-0.49037093
27	0x3c0266d9	0.007959091
28	0xbef9bc6c	-0.48776567
29	0x3ea8b8c5	0.32953468
30	0xbcf81d6d	-0.030287469
31	0xbe372010	-0.17883325
32	0xbe504984	-0.20340544
33	0xbdd9faab	-0.10643514
34	0x3d541936	0.051781856
35	0xbdd9c56f	-0.106333606
36	0xbe037b07	-0.128399
37	0x3de31139	0.11087269
38	0xbe8a5807	-0.27020285
39	0xbcca87bd	-0.024722928

lstm.weight_ih_l0_reverse f4 [40, 200]
0	0x3ba9d48a	0.0051828073
1	0xbedd2f95	-0.43200365
2	0xbdf96b1c	-0.121786326
3	0x3c842cd1	0.016134651
4	0x3f20e555	0.6284993
5	0xbd4374e6	-0.047718905
6	0xbe59c83f	-0.21267794
7	0x3f003472	0.50080025
8	0xbe814b0e	-0.25252575
9	0xbead59e6	-0.3385765
10	0x3ea2ffc4	0.3183576
11	0xbeab9d53	-0.33518466
12	0xbd055d7f	-0.032559868
13	0xbdc5eb4b	-0.09664019
14	0x3e86b742	0.2631169
15	0xbd59cc92	-0.05317361
16	0x3e93acb1	0.2884269
17	0xbe19a31a	-0.15003625
18	0x3d19caf4	0.037547067
19	0xbe2890cb	-0.16461484
20	0x3e769b17	0.240826
21	0x3e0ee59c	0.13954777
22	0x3d37df28	0.044890553
23	0x3ef0175c	0.46892822
24	0x3d2d606a	0.042328276
25	0x3af66649	0.0018798794
26	0xbdfd424c	-0.12366161
27	0x3e6d826d	0.23194285
28	0x3e00f40e	0.125931
29	0xbea650eb	-0.3248361
30	0x3e40314b	0.18768804
31	0x3ebddf92	0.37084633
32	0xbe0d3449	-0.13789476
33	0x3d50053f	0.050786253
34	0xbe1d1c28	-0.15342772
35	0x3e271fe0	0.16320753
36	0x3ea0e928	0.31427884
37	0x3e56b6fc	0.2096824
38	0xbe752768	-0.23940814
39	0xbd7cb2c4	-0.06169392
40	0x3e8779dd	0.26460162
41	0x3ec8a137	0.39185497
42	0x3d96176f	0.07328688
43	0xbdf952e1	-0.12174011
44	0xbea48c09	-0.32138088
45	0x3eda2273	0.42604408
46	0xbeb13e35	-0.34617773
47	0xbdea38f2	-0.11436643
48	0x3e85a971	0.26105836
49	0xbe2c6ecd	-0.16839142
50	0x3dc84f3c	0.09780738
51	0x3ecde6f4	0.40215266
52	0x3e08d68a	0.1336309
53	0xbddb73ab	-0.10715421
54	0x3ec7dcce	0.39035648
55	0x3d23b176	0.03996416
56	0x3da4d4f1	0.08048428
57	0xbc1775e2	-0.009244414
58	0x3efbb64e	0.49162525
59	0x3eaadebc	0.33373058
60	0xbea97802	-0.3309937
61	0xbe972a8f	-0.29524657
62	0x3ebbad8a	0.36655837
63	0xbe422244	-0.18958384
64	0x3d3e7824	0.046501294
65	0xbe6453b4	-0.22297555
66	0x3e08e356	0.13367972
67	0xbf6de2ce	-0.929242
68	0x3d0241dc	0.03180109
69	0x3d9ab69f	0.075543635
70	0x3ea0a88d	0.31378594
71	0x3bf37002	0.007429124
72	0x3d569aae	0.052393608
73	0xbe0da245	-0.13831432
74	0xbd59b687	-0.053152587
75	0xbde3d452	-0.11124481
76	0xbd56930f	-0.05238634
77	0xbea0daf0	-0.31417036
78	0x3ef4fea3	0.47850522
79	0xbdc204b7	-0.094735555
80	0x3ea958ea	0.3307565
81	0xbda09c14	-0.078422695
82	0x3e4bf8f6	0.1991919
83	0x3e3df849	0.18551745
84	0x3ec92953	0.3928934
85	0x3e5e5abf	0.21714304
86	0x3e030a98	0.1279701
87	0x3f40d468	0.75324106
88	0x3e4fac94	0.20280677
89	0xbf16eea2	-0.58957875
90	0xbc1abf80	-0.009445071
91	0x3ec2dc9d	0.3805894
92	0x3e2adacd	0.16685028
93	0x3deb4f92	0.11489786
94	0x3e5c8f5d	0.21539064
95	0x3ed6312c	0.4183439
96	0x3e4b2031	0.19836499
97	0x3e6797c4	0.22616488
98	0x3c32a123	0.010902676
99	0xbeb8c55d	-0.36088076
100	0x3ec3b275	0.3822209
101	0xbe00a3e6	-0.12562522
102	0x3ddbc032	0.10730018
103	0x3e5f766f	0.21822523
104	0x3e70a971	0.23502137
105	0x3dc95073	0.098297976
106	0xbec8b99e	-0.39204115
107	0x3dc88319	0.0979063
108	0x3c3bec16	0.0114698615
109	0x3da42e7a	0.08016677
110	0x3e8f076d	0.27935353
111	0xbd9690d5	-0.07351843
112	0xbd5235d2	-0.05132086
113	0x3d1a16dd	0.03761946
114	0x3e114210	0.14185357
115	0xbd808909	-0.062761374
116	0xbe0aa88f	-0.13540863
117	0x3edb3691	0.42815068
118	0xbe2d4092	-0.16919163
119	0x3e0c86ab	0.13723247
120	0x3dc5aed1	0.09652484
121	0xbe0a6035	-0.13513263
122	0xbeee2375	-0.46511427
123	0xbf0b193f	-0.543354
124	0x3b8d4146	0.0043107597
125	0x3dc38104	0.09546092
126	0x3e022d65	0.12712629
127	0xbf149cb6	-0.5805162
128	0xbd39be45	-0.04534747
129	0x3c018a24	0.00790647
130	0xbd36121c	-0.044450864
131	0x3ed1015e	0.40821356
132	0x3e78d860	0.2430129
133	0xbe318240	-0.17334843
134	0x3ecd2dc9	0.40073994
135	0xbe7bb1b7	-0.24579512
136	0x3d6661d2	0.056245632
137	0xbe3a761c	-0.18209118
138	0xbb653f39	-0.003498031
139	0x3db3634f	0.08759176
140	0x3d95f26b	0.07321628
141	0x3f092b07	0.5358128
142	0xbe035f30	-0.1282928
143	0xbda07dba	-0.078364804
144	0xbeb4916b	-0.35267195
145	0x3f075e83	0.5287859
146	0x3ec80224	0.39064133
147	0xbf1cc721	-0.61241347
148	0x3dc66678	0.09687513
149	0x3d613c1e	0.054988973
150	0xbe20ffe6	-0.15722618
151	0x3ee417ba	0.44549352
152	0xbebd1ed6	-0.36937588
153	0x3cb62e94	0.022239007
154	0x3ee16172	0.44019657
155	0xbe6ff6b3	-0.23433952
156	0xbf037f76	-0.51366365
157	0xbe2fc6a1	-0.17165615
158	0x3ce91f50	0.028457314
159	0x3e95ec66	0.2928192
160	0xbdb44cb8	-0.088036954
161	0xbec915d2	-0.3927446
162	0x3ba13f73	0.004920894
163	0x3dc0dafe	0.094167694
164	0x3e71f987	0.23630343
165	0xbe227386	-0.15864381
166	0x3d6f6dac	0.0584542
167	0xbd4e0e82	-0.050306804
168	0x3e44c803	0.19216923
169	0x3da00042	0.07812549
170	0xbe747ead	-0.23876448
171	0xbd2afb38	-0.041743487
172	0x3f173ba0	0.59075356
173	0xbdaa3e93	-0.08312716
174	0xbccaab94	-0.024740018
175	0xbed51a34	-0.41621554
176	0x3e2b51ad	0.16730376
177	0x3ea3cc32	0.31991726
178	0xbe07cb8c	-0.1326124
179	0xbdd36f5c	-0.103239745
180	0xbe9a6929	-0.30158356
181	0x3e9c4f44	0.30529225
182	0x3e1cc7fc	0.15310663
183	0x3c9ce21a	0.019150782
184	0x3e916f72	0.2840534
185	0x3ddb5260	0.10709071
186	0xbe6f5144	-0.23370844
187	0xbd5853f8	-0.052814454
188	0x3e28dcef	0.1649053
189	0xbdeb9e3c	-0.1150479
190	0x3ddd92ad	0.10818992
191	0x3e8fe7b5	0.28106466
192	0xbe3b2332	-0.18275145
193	0xbdaa0764	-0.08302191
194	0xbec90245	-0.39259544
195	0xbce1e824	-0.027576514
196	0x3d94f66c	0.07273564
197	0xbe4b78e2	-0.19870332
198	0xbea9f0da	-0.33191568
199	0xbeb1ee34	-0.34752047
200	0xbf0180e7	-0.50587314
201	0xbd92be64	-0.071652204
202	0x3ec66e82	0.38756186
203	0x3e9256d9	0.28581885
204	0xbca632d8	-0.020287916
205	0xbd863ff9	-0.065551706
206	0x3dcde75d	0.10053895
207	0xbeb68bfb	-0.35653672
208	0xbf020b50	-0.5079851
209	0x3ed69b2e	0.41915268
210	0x3eac2af8	0.33626533
211	0x3e563f72	0.2092264
212	0x3ed8d973	0.423534
213	0xbe5142a7	-0.20435582
214	0x3ed3034c	0.41213453
215	0x3eb1a676	0.34697312
216	0x3cf99de9	0.030470805
217	0x3d998c9b	0.074975215
218	0x3eb588dc	0.35455978
219	0xbeb0e8d0	-0.34552622
220	0x3e509962	0.20371011
221	0x3e0a2754	0.13491565
222	0xbe8be951	-0.27326444
223	0xbe85cdff	-0.26133725
224	0xbde0e8da	-0.10981913
225	0x3f3c9440	0.7366371
226	0x3e538381	0.20655634
227	0xbe5f9b61	-0.21836616
228	0xbe13e97a	-0.14444533
229	0xbc5c5edc	-0.013450351
230	0x3e1d5617	0.15364872
231	0xbd1ec1af	-0.03875893
232	0x3e026164	0.12732464
233	0xbf08dde6	-0.5346359
234	0x3dbdb1be	0.09262417
235	0x3e8e2008	0.27758813
236	0x3edc303f	0.4300556
237	0x3dc684e7	0.09693318
238	0x3dbe40bc	0.09289691
239	0xbdd26608	-0.10273367
240	0x3d3ed490	0.046589434
241	0xbcebf7ae	-0.028804626
242	0x3e665c51	0.22496153
243	0x3dc82511	0.09772695
244	0x3f1998e5	0.59998924
245	0x3e5eb7f6	0.21749863
246	0x3e49109e	0.19635245
247	0x3d236903	0.03989507
248	0xbe00c259	-0.12574138
249	0x3e8dc83a	0.27691823
250	0xbe9f2c40	-0.31088448
251	0x3eae8d40	0.3409214
252	0x3eca1077	0.39465687
253	0x3e2c02ed	0.16797991
254	0xbca5db7e	-0.020246264
255	0xbda1f786	-0.079085395

lstm.weight_hh_l0_reverse f4 [40, 10]
0	0xbd850bf7	-0.06496423
1	0x3e2b488e	0.16726896
2	0xbe59b07b	-0.21258728
3	0x3c463868	0.012098409
4	0xbe2ea3e1	-0.17054702
5	0xbe728ea1	-0.23687221
6	0x3c0114c4	0.007878486
7	0xbe12dbbd	-0.14341636
8	0x3dac1d1a	0.08403988
9	0x3eed835d	0.46389285
10	0x3e964835	0.29351965
11	0xbd90ff85	-0.070799865
12	0x3e216b34	0.15763551
13	0xbf2497e8	-0.6429429
14	0xbe2459d5	-0.16049893
15	0x3ed2f3e0	0.41201687
16	0xbe5829eb	-0.2110974
17	0xbec8094e	-0.390696
18	0x3dbd3768	0.092390835
19	0x3d899d95	0.067195095
20	0x3e0cfc03	0.1376801
21	0x3e83ceea	0.257438
22	0x3eb330e3	0.34998235
23	0xbdb2bdb8	-0.08727592
24	0xbe29c34d	-0.16578408
25	0x3cc0061e	0.023440417
26	0xbde14bf7	-0.11000817
27	0xbe1086ca	-0.14113918
28	0x3e631b6f	0.22178434
29	0xbe04435b	-0.12916319
30	0xbb981d0c	-0.0046421345
31	0x3e8a0e84	0.269642
32	0x3e48855e	0.19582126
33	0x3edfecc6	0.4373533
34	0xbd0b7efa	-0.03405664
35	0xbde22743	-0.11042645
36	0xbc363b0b	-0.011122475
37	0x3dd4b654	0.10386339
38	0xbe0445d2	-0.1291726
39	0xbe5b2432	-0.21400526
40	0xbe8005b3	-0.25004348
41	0x3eead211	0.45863393
42	0xbe2e8e1e	-0.17046401
43	0xbce92b10	-0.028462917
44	0xbd97fe5f	-0.07421564
45	0x3bee9dbd	0.0072819875
46	0xbe096982	-0.13419154
47	0x3dc4cdff	0.09609603
48	0xbe3a8c0c	-0.18217486
49	0x3e2cce2d	0.16875525
50	0x3e336e07	0.17522441
51	0x3e162b78	0.1466502
52	0xbdbc0d52	-0.09182228
53	0x3e617bd0	0.22019887
54	0xbeaca535	-0.33719793
55	0x3de36448	0.111031115
56	0x3c4c0163	0.0124515025
57	0x3d9d09e0	0.07667899
58	0xbe663783	-0.22482114
59	0x3e992b37	0.29915783
60	0x3d37743a	0.044788577
61	0x3d754e7c	0.0598893
62	0xbea426ce	-0.32060856
63	0x3e36be10	0.1784594
64	0x3e961068	0.29309392
65	0xbeaef8cc	-0.34174192
66	0x3e988362	0.29787737
67	0x3e26aa9a	0.16276017
68	0x3e03cc2a	0.12870851
69	0x3eb9573a	0.3619936
70	0xbe43f726	-0.19137248
71	0xbc2fb24c	-0.010723662
72	0xbd859813	-0.065231465
73	0x3e135649	0.14388384
74	0xbd946150	-0.072451234
75	0x3a4e9b0d	0.0007881381
76	0x3c22d4f7	0.00993847
77	0xbd6181e0	-0.0550555
78	0x3e1f0042	0.15527442
79	0x3d4b3d57	0.049619045
80	0xbc6a8068	-0.014312841
81	0x3eea3429	0.4574292
82	0xbf00609e	-0.50147426
83	0xbd95670f	-0.072950475
84	0xbe1b7b5a	-0.15183774
85	0x3cd7e053	0.026352083
86	0x3e988b93	0.29793987
87	0x3ed99b1e	0.42501158
88	0x3cbdceb8	0.02316986
89	0xbe7d95cd	-0.24764176
90	0x3eae57f7	0.34051487
91	0xbd333978	-0.04375598
92	0xbe305da7	-0.17223226
93	0xbe92c96f	-0.28669307
94	0x3bd37374	0.006452972
95	0xbeedaae7	-0.4641945
96	0x3deb3120	0.11483979
97	0xbe8f710a	-0.2801593
98	0x3d1b605c	0.037933692
99	0x3ddc3400	0.10752106
100	0x3ecefe6c	0.40428483
101	0xbc6b34a0	-0.0143558085
102	0x3e4b35f0	0.19844794
103	0xbf4c3d58	-0.79781103
104	0xbecfe524	-0.40604508
105	0xbe1dacbb	-0.15397923
106	0x3eb9dbb7	0.36300442
107	0xbe8ed5c0	-0.27897453
108	0x3ea73fae	0.3266577
109	0x3dd78f51	0.10525382
110	0xbdc065a1	-0.09394384
111	0x3bfe7678	0.0077655874
112	0x3e901c74	0.28146708
113	0xbeb22479	-0.3479345
114	0xbe975a50	-0.2956109
115	0xbe85b2cf	-0.26112983
116	0x3d95abdd	0.07308171
117	0xbe9d6e66	-0.3074829
118	0x3efc5ec7	0.4929106
119	0x3eef6208	0.4675448
120	0x3b263490	0.002536092
121	0x3f5ed8ec	0.87049747
122	0xbeb6b6a5	-0.35686222
123	0xbd988fe2	-0.074493185
124	0x3de38a2b	0.11110338
125	0x3e6b66fe	0.22988507
126	0xbe9fc31c	-0.31203544
127	0xbe2d0025	-0.16894586
128	0xbf020cc2	-0.50800717
129	0xbe421f9c	-0.1895737
130	0x3d7d6f91	0.061873976
131	0xbe06a1d0	-0.13147664
132	0xbd8a7038	-0.06759685
133	0x3eb97914	0.36225188
134	0x3e9be074	0.30444682
135	0x3e0ec2f8	0.13941562
136	0xbdc1bf59	-0.09460325
137	0xbe3794c9	-0.17927851
138	0xbd4a921c	-0.049455747
139	0xbc8255df	-0.015910087
140	0x3e61618d	0.22009869
141	0xbee2d5f4	-0.44303858
142	0x3f255749	0.6458631
143	0xbd16cf7b	-0.036818963
144	0x3ec75c78	0.38937736
145	0x3d17153c	0.036885485
146	0xbe0cbd55	-0.137441
147	0xbdc1eea1	-0.09469343
148	0x3ea25bd7	0.31710693
149	0xbc437279	-0.011929148
150	0xbe902394	-0.28152144
151	0xbdf3132a	-0.1186889
152	0x3e988c13	0.29794368
153	0xbe3f0c85	-0.1865712
154	0xbc85a3ac	-0.016313396
155	0x3eb04e3f	0.34434697
156	0xbe284965	-0.16434248
157	0xbda4db39	-0.08049626
158	0x3f04307a	0.5163647
159	0x3e95dd82	0.2927056
160	0x3f14e31b	0.58159035
161	0xbc9c407b	-0.019073715
162	0xbdd0843b	-0.10181471
163	0xbf2fa3d9	-0.68609387
164	0xbf958b1a	-1.1683075
165	0xbeda0634	-0.42582858
166	0x3ea7aa05	0.32746902
167	0xbf3ecb46	-0.7452892
168	0x3f127a3c	0.57217765
169	0x3e9ff7ab	0.31243643
170	0x3d8f973e	0.07011269
171	0x3e262769	0.16225971
172	0xbda1c0de	-0.078981146
173	0xbf0889ee	-0.53335464
174	0xbe6aa742	-0.22915366
175	0x3dcc19b2	0.099658385
176	0x3e376188	0.17908299
177	0x3d67dc06	0.056606315
178	0x3f2ed953	0.6830036
179	0xbddaaf72	-0.10677995
180	0x3f31c5d7	0.69442505
181	0x3e0e8f78	0.13921916
182	0x3e631fb0	0.22180057
183	0xbe1972ee	-0.14985248
184	0x3d99fade	0.07518552
185	0x3e3681bc	0.17822927
186	0xbf19a3a5	-0.60015327
187	0xbe29b566	-0.16573104
188	0xbe735d74	-0.23766118
189	0x3e474297	0.19458996
190	0x3e04459c	0.12917179
191	0x3e451f6a	0.19250265
192	0xbe7f0858	-0.24905527
193	0xbec4bdd3	-0.38426074
194	0xbedc1629	-0.42985657
195	0xbf0969f8	-0.5367732
196	0xbeeb62d3	-0.45973834
197	0xbe9f4831	-0.31109765
198	0x3f231819	0.63708645
199	0xbd35edb2	-0.044416137
200	0xbec1b643	-0.37834367
201	0x3e89263a	0.26786977
202	0xbe0ab87f	-0.13546942
203	0x3d730756	0.059333168
204	0x3edb134f	0.4278817
205	0x3a45d361	0.00075464515
206	0xbe6c82ae	-0.23096725
207	0x3e412f15	0.18865617
208	0xbe19ec72	-0.15031603
209	0xbed08268	-0.40724492
210	0xbe9eda6e	-0.31026024
211	0xbcb13442	-0.021631364
212	0x3b901fe3	0.0043983324
213	0x3db22367	0.08698159
214	0xbd662450	-0.056186974
215	0x3e530bef	0.20610021
216	0x3e7af2cd	0.24506684
217	0xbecdba85	-0.40181366
218	0xbe3a2803	-0.18179326
219	0x3ccab24e	0.024743225
220	0xbe106a74	-0.14103109
221	0x3edad657	0.42741653
222	0xbf0582f0	-0.5215292
223	0xbe1e068f	-0.1543219
224	0xbee7a945	-0.4524633
225	0xbec5c1b4	-0.38624346
226	0x3cb8f690	0.022578508
227	0xbe5958db	-0.21225302
228	0xbe042216	-0.12903628
229	0xbc970de8	-0.018439248
230	0x3e63ab86	0.222334
231	0xbdd8693d	-0.105669476
232	0xbf0c5ad1	-0.54826075
233	0x3e875980	0.2643547
234	0x3e48366f	0.19552015
235	0x3de650c6	0.11245875
236	0xbe011699	-0.12606277
237	0x3e3fd61e	0.18734023
238	0x3dea771c	0.114484996
239	0xbe0be55a	-0.1366171
240	0x3ebfb3fe	0.3744201
241	0xbd69ced1	-0.057082
242	0x3ed7f8e2	0.4218207
243	0xbd2e7dc9	-0.042600427
244	0x3c0b389b	0.0084973825
245	0xbe31b5ed	-0.17354555
246	0x3e2d6bdc	0.16935676
247	0x3d115606	0.03548243
248	0x3e0570de	0.13031337
249	0xbe0a713f	-0.13519762
250	0x3e017dc0	0.12645626
251	0xbea7490c	-0.32672918
252	0x3e757ed2	0.2397416
253	0x3e2916f2	0.16512659
254	0x3d631e87	0.055449035
255	0xbd238542	-0.039922006

lstm.bias_ih_l0_reverse f4 [40]
0	0x3e00f803	0.12594609
1	0xbd831ba8	-0.064017594
2	0xbe0568e1	-0.1302829
3	0x3e85e0bd	0.26148024
4	0x3e1672f4	0.14692289
5	0xbddad20d	-0.10684595
6	0xbe8dff47	-0.27733824
7	0xbe9b5dc8	-0.30344987
8	0xbbbbc32f	-0.005730055
9	0x3e8ec6cc	0.27886045
10	0xbf00c805	-0.50305206
11	0xbf2846b6	-0.65732896
12	0xbe3772dd	-0.1791491
13	0x3e68825e	0.22705981
14	0xbd9e5f61	-0.07733036
15	0xbf6f53b6	-0.9348711
16	0xbf8b54f3	-1.08853
17	0xbd910b2c	-0.07082209
18	0xbead57f2	-0.3385616
19	0xbf576a2b	-0.84146374
20	0xbece36b9	-0.40276125
21	0x3e3adba5	0.1824785
22	0xbeb6e106	-0.35718554
23	0x3e50503b	0.20343105
24	0x3e9e7a54	0.30952704
25	0x3edb1957	0.4279277
26	0xbd9e8c58	-0.07741612
27	0x3f0551fb	0.5207822
28	0xbee36036	-0.4440934
29	0xbe676ff8	-0.22601306
30	0xbe891560	-0.2677412
31	0x3ed7fc9b	0.4218491
32	0xbe30681e	-0.17227218
33	0xbe42617c	-0.189825
34	0xbd479a73	-0.04873128
35	0xbeae7b15	-0.3407828
36	0xbed48100	-0.4150467
37	0x3d9aef28	0.07565147
38	0x3daff359	0.08591337
39	0xbd8dbc84	-0.06920722

lstm.bias_hh_l0_reverse f4 [40]
0	0xbe544569	-0.20729603
1	0x3e331c23	0.17491202
2	0x3e8c8892	0.27447945
3	0x3e95ebe7	0.29281542
4	0xbe115cca	-0.14195552
5	0xbea1236f	-0.31472346
6	0x3b880e4a	0.004152094
7	0xbe42fb9d	-0.19041295
8	0xbd03b464	-0.032154456
9	0x3d042fc7	0.032272127
10	0xbf3bea45	-0.7340434
11	0xbf4ac52a	-0.792071
12	0xbeac73b7	-0.33682033
13	0x3e9b2d76	0.3030812
14	0xbe49360b	-0.19649522
15	0xbf4f697c	-0.8102033
16	0xbf1c2994	-0.61000943
17	0xbe056a49	-0.13028826
18	0x3bd80845	0.0065927827
19	0xbf36a94b	-0.7135207
20	0xbe9e5c77	-0.3092992
21	0x3d2852d0	0.0410946
22	0xbeee90f6	-0.4659497
23	0x3f025e49	0.5092512
24	0x3ee33ad4	0.4438082
25	0x3cca3eea	0.024688203
26	0x3e8b3faa	0.2719701
27	0x3e898342	0.26857954
28	0xbec9df66	-0.39428252
29	0xbedc4c79	-0.43027094
30	0xbe402534	-0.18764192
31	0xbd018202	-0.031618126
32	0xbe4a0fb0	-0.19732547
33	0xbeeff256	-0.46864575
34	0x3d75ab21	0.059977654
35	0xbcd882f8	-0.026429638
36	0xbd87e0db	-0.06634685
37	0xbd2d6a8a	-0.04233793
38	0x3ed873a3	0.42275724
39	0xbc852232	-0.016251657

lstm.weight_ih_l1 f4 [40, 20]
0	0x3dad2ffe	0.084564194
1	0xbebfbdcd	-0.37449494
2	0x3e6915e3	0.22762255
3	0x3de25c7e	0.11052798
4	0x3e9d65ec	0.30741823
5	0x3f2852ce	0.6575135
6	0x3e775555	0.24153645
7	0x3c5f9ba6	0.013647949
8	0xbdfd1462	-0.12357403
9	0xbe2a37e7	-0.16622888
10	0x3ed1fa23	0.41011152
11	0x3eac95bf	0.33707997
12	0x3dd0981c	0.101852626
13	0x3f5213d0	0.8206148
14	0xbe3eedcc	-0.186454
15	0xbf4593c2	-0.77178586
16	0x3ddca072	0.1077279
17	0x3f5124e8	0.8169694
18	0xbe8a6e46	-0.27037257
19	0xbea75275	-0.32680097
20	0xbad4fbd9	-0.0016249373
21	0xbee14fb2	-0.44006115
22	0x3e397aa1	0.18113185
23	0xbf47a732	-0.77989495
24	0x3ce5354f	0.027979521
25	0xbeaf7398	-0.3426788
26	0x3f5639b0	0.83681774
27	0x3e6351b3	0.22199135
28	0x3ee56d00	0.44809723
29	0x3dfbd5fd	0.122966744
30	0xbebe2ba0	-0.37142658
31	0xbf06c4ef	-0.52644247
32	0x3ed6d8b3	0.41962203
33	0x3f14d5ff	0.5813903
34	0x3eaf4a23	0.3423625
35	0xbec84667	-0.39116213
36	0x3ec5ce39	0.38633898
37	0x3f44a255	0.768102
38	0xbf386526	-0.7202934
39	0x3e679fb7	0.2261952
40	0x3dbfb664	0.0936096
41	0xbea9ff81	-0.33202747
42	0xbef8a76b	-0.4856523
43	0xbed5358b	-0.41642413
44	0x3ed8fc0c	0.42379797
45	0x3e364e6e	0.17803356
46	0x3e6cb259	0.23114909
47	0x3e6fef1c	0.23431057
48	0xbda2affe	-0.07943724
49	0x3eedce4d	0.46446458
50	0xbe2c7e30	-0.16845012
51	0xbe66b530	-0.22530055
52	0x3e9cc811	0.3062139
53	0x3eafed0f	0.3436055
54	0x3f41ab04	0.75651574
55	0x3e8b4242	0.27198988
56	0xbd0edcad	-0.03487842
57	0x3ef36300	0.47536469
58	0xbda501d5	-0.0805699
59	0x3ee4ba10	0.44673204
60	0xbe6a6f5a	-0.2289404
61	0xbe956b8f	-0.29183623
62	0xbe8c0f78	-0.27355552
63	0xbe5df5d3	-0.21675806
64	0xbe2ef6b3	-0.17086296
65	0x3d6d6b86	0.05796387
66	0x3f10dcaf	0.56586736
67	0x3ec54f4f	0.3853707
68	0x3f1a960e	0.60385215
69	0xbe1719e4	-0.1475597
70	0x3ecd5d5f	0.401103
71	0x3e6a5876	0.22885308
72	0x3df27fe3	0.11840799
73	0x3f06bf1d	0.52635366
74	0x3ed39872	0.41327244
75	0xbe42afd6	-0.19012389
76	0x3f367c73	0.71283644
77	0x3e8d1891	0.27557805
78	0x3e189195	0.14899285
79	0xbe83cb12	-0.25740868
80	0x3e06cfd0	0.13165212
81	0x3d9b2a3d	0.07576416
82	0x3ebff153	0.37488803
83	0xbea08ec5	-0.31358925
84	0x3e568614	0.20949584
85	0x3f21f8dc	0.63270354
86	0x3d2ca255	0.042147
87	0xbe10d333	-0.14143066
88	0x3e5879cf	0.21140216
89	0x3d6df3c9	0.05809382
90	0x3cfa0b2e	0.030522909
91	0xbef7fa41	-0.48433116
92	0x3ef66faf	0.48132083
93	0x3f92d52d	1.1471306
94	0x3e9a2930	0.3010955
95	0xbed2e2f1	-0.41188768
96	0x3e543a26	0.20725307
97	0xbc4d5c58	-0.0125342235
98	0xbea23f27	-0.31688806
99	0xbd595c3a	-0.05306647
100	0x3dabca86	0.08388238
101	0x3d3582be	0.04431414
102	0x3e41535d	0.18879457
103	0x3dd292ce	0.10281907
104	0x3de942ab	0.11389669
105	0xbeb40d7b	-0.35166535
106	0xbe8aabc2	-0.27084166
107	0x3e69e9fe	0.22843167
108	0xbf1e71cd	-0.61892396
109	0xbcfba843	-0.030719882
110	0x3e0a4d1f	0.13505982
111	0xbcaacd44	-0.020849831
112	0xbe6597bf	-0.22421168
113	0x3e957973	0.2919422
114	0x3e940fc6	0.28918284
115	0x3ebbef35	0.36705938
116	0xbea6ede4	-0.3260337
117	0x3ebe45ac	0.3716253
118	0x3e40b282	0.18818095
119	0x3f20eacd	0.6285828
120	0x3f17652f	0.5913877
121	0x3d98b5db	0.07456561
122	0xbed84d7d	-0.4224662
123	0xbec1e6c8	-0.37871385
124	0x3f826c5e	1.0189321
125	0x3f521570	0.8206396
126	0x3f4a04d2	0.78913605
127	0x3dba0ad4	0.090840966
128	0x3f573558	0.8406577
129	0xbf07e634	-0.5308564
130	0x3de403ce	0.11133538
131	0xbe4e2bec	-0.20133942
132	0xbee9e3d2	-0.45681626
133	0x3f45442c	0.7705715
134	0x3f178b0e	0.59196556
135	0x3e1bff90	0.15234208
136	0x3cecb877	0.028896553
137	0xbe447b65	-0.19187696
138	0xbdd21292	-0.10257448
139	0x3da9ef05	0.082975425
140	0x3ea3a52a	0.31961948
141	0xbeb942a4	-0.36183655
142	0xbe8d7e68	-0.27635503
143	0xbde7f8fd	-0.113267876
144	0x3f36ded7	0.71433777
145	0x3f08eb1f	0.53483766
146	0x3ea64f06	0.32482165
147	0x3ed87348	0.42275453
148	0x3ee6b919	0.45063093
149	0x3ef102de	0.470725
150	0x3e84da05	0.25947586
151	0xbf47cb8e	-0.78044975
152	0x3e779b64	0.2418037
153	0x3ea8bc71	0.3295627
154	0x3ea01596	0.3126647
155	0x3e48e3f7	0.19618212
156	0x3eb60384	0.35549557
157	0x3e5fdd48	0.21861756
158	0xbdbf373e	-0.093367085
159	0xbf5e987a	-0.8695141
160	0xbd5e122e	-0.054216556
161	0xbe8179c4	-0.25288212
162	0xbdf37da3	-0.11889198
163	0xbe8e07ed	-0.27740422
164	0x3eb3106d	0.3497347
165	0xbdb31f6d	-0.08746228
166	0xbe559da9	-0.20860924
167	0x3ea466d2	0.32109696
168	0xbe5f0c7a	-0.21782103
169	0x3f8276d5	1.0192515
170	0xbdf22a31	-0.118244536
171	0x3e03c7e6	0.12869224
172	0x3e9c9c3c	0.30587947
173	0x3f3330d6	0.6999639
174	0xbeeddebd	-0.46458998
175	0xbe372a5b	-0.17887251
176	0xbe1c87a7	-0.15286122
177	0xbe550df6	-0.20806107
178	0x3e8c40e5	0.2739326
179	0xbf4a3a87	-0.78995556
180	0xbf1a5fba	-0.6030232
181	0x3aaca1ff	0.0013170837
182	0xbf038b82	-0.5138475
183	0xbe868f3d	-0.26281157
184	0x3e8b1859	0.27167013
185	0xbe844b53	-0.25838718
186	0xbf2a642b	-0.66559094
187	0xbd60ff6d	-0.054931093
188	0xbc872545	-0.016497264
189	0xbe3514b6	-0.17683682
190	0xbd48c6b8	-0.049017638
191	0xbe242f68	-0.16033709
192	0xbe352613	-0.17690305
193	0x3ec6d622	0.38835245
194	0xbd7f7669	-0.062368784
195	0x3ed81a87	0.4220774
196	0xbf280386	-0.65630376
197	0x3e02838b	0.12745492
198	0xbde15757	-0.11002987
199	0x3e8240e5	0.25440136
200	0xbf42f201	-0.7615052
201	0xbe10f171	-0.14154603
202	0x3dbb8716	0.09156625
203	0xbda72e02	-0.08163072
204	0xbeca94c6	-0.3956663
205	0xbdbcb90b	-0.09214982
206	0x3c9e4cc5	0.019323716
207	0x3eb3799c	0.35053718
208	0xbed0c524	-0.40775406
209	0x3edfbc92	0.43698555
210	0xbec63038	-0.38708663
211	0x3e307c75	0.17234977
212	0x3eec8580	0.46195602
213	0xbdaee9c5	-0.08540682
214	0xbeb611e9	-0.3556054
215	0x3e4a5050	0.197572
216	0xbf354ba2	-0.7081853
217	0x3ee5dcc1	0.44894984
218	0xbef6e797	-0.48223564
219	0xbee092b6	-0.43861932
220	0xbea368a2	-0.31915766
221	0x3ea4d5ac	0.3219427
222	0xbe5c7c9a	-0.21531907
223	0xbd8a4b32	-0.067526236
224	0x3c8a6678	0.016894564
225	0x3e915383	0.28384027
226	0xbe891ba7	-0.2677891
227	0x3e0bd9b1	0.13657261
228	0x3e4124a5	0.18861635
229	0x3e33195b	0.17490141
230	0xbf2a5722	-0.66539204
231	0xbf0e3465	-0.555487
232	0xbed503ad	-0.41604367
233	0xbd92b6ab	-0.071637474
234	0xbd6c9908	-0.05776313
235	0x3eb0b581	0.34513476
236	0xbf2daa82	-0.678383
237	0xbe52e828	-0.20596373
238	0xbd60faf4	-0.054926828
239	0xbf363f19	-0.7119003
240	0xbea4f4d9	-0.32218054
241	0x3cf8a2ef	0.03035113
242	0xbe2555da	-0.16146031
243	0xbe794755	-0.24343617
244	0xbf277eaa	-0.6542765
245	0x3edf6509	0.4363177
246	0x3e903fe8	0.28173757
247	0x3f31316a	0.69216025
248	0x3e54a46e	0.2076585
249	0x3d8fb6b8	0.07017273
250	0xbe7054ec	-0.23469895
251	0xbd98cedb	-0.074613295
252	0x3e9ee563	0.31034383
253	0x3ec098bb	0.37616524
254	0xbe912618	-0.28349376
255	0x3f1ad40b	0.604798
