model.pt (torch, 909965 bytes, 13 tensors)

embedding_module.weight f4 [515, 200]
-0.020480651 -0.6768003 0.1821533 -0.9280015 -0.55356455 -0.04633453 -0.31618202 0.2516484
-0.77398676 -0.0044571715 -0.22026964 -0.49358737 0.2155195 0.85812104 -0.62189174 0.1498861
-0.07762144 -0.90119064 -0.9249389 0.7596797 -0.66569805 0.14052351 -0.49774796 0.19057517
-0.16557355 -0.5914984 0.61234266 -0.61300343 -0.17256358 0.47189298 -0.11430637 -0.11568677
0.051669654 -0.08313835 0.94147533 -0.7733349 0.5727626 -0.13299365 0.17584708 0.023459597
-0.64436245 0.33222666 -0.44333383 0.5210155 -0.038088247 -0.28387973 -0.74902934 0.47696915
-0.36096105 -0.4847854 -0.24531826 1.1056882 -0.87225986 -0.45017955 0.5536921 0.098843366
-0.08907267 -0.93037975 -0.63532054 0.19692014 -0.2562922 0.1931914 0.2580772 -0.5488974
-0.7796526 -0.5643612 -0.30732006 -0.53658724 -0.5091399 -0.7605723 0.32250714 -0.20628755
-0.047791593 0.2610486 0.748341 0.0556409 -0.41883826 -1.5022172 0.10121412 0.039623976
-0.14574966 -0.025918119 0.26814064 -0.30790603 -0.2579506 0.38263464 -0.86760306 -0.05634612
-0.55821776 0.5800398 0.09852799 0.27044144 0.2384826 0.648608 0.80480474 -0.03953889
0.722352 -0.6133711 0.43653694 0.35051808 -1.2720059 -0.11991778 0.68181986 -0.015555435
0.06668763 0.04541653 0.15515216 -0.18653126 0.3809286 0.93613833 0.24497676 0.6509746
0.1504541 0.56061476 0.5179535 -0.5569828 0.41572738 0.0038712237 -0.044442277 0.019618766
0.39688623 -1.0478548 -0.37047005 -0.2665433 0.99639434 0.35422447 0.4535181 0.46795174
0.43474644 -0.51194304 -0.07251773 -0.5890876 -0.4670167 -0.3642062 -1.0954826 0.58594036
-0.57357365 0.90851825 -0.16867413 -0.14127067 0.37038353 -0.3167123 0.23721473 0.6567604
-1.2446784 -0.6215447 -0.050813954 -0.9771129 0.22812633 0.033571593 0.9728865 -0.35857505
0.39567235 0.049697004 0.12830931 0.05658728 0.8655212 -0.41900754 0.7611055 0.029282471
0.21771581 -0.31144914 0.7105841 0.232604 0.20127513 -0.9197592 0.536915 0.53312933
-1.4322404 -0.31825805 1.1667682 -0.65768796 0.63402057 0.05794822 0.28249356 -0.3054586
-0.045867756 -0.59220564 0.14892666 -1.5261383 0.027886588 0.3737844 -0.2665823 -0.1479053
0.108315535 -0.73697037 -0.5375651 -0.23494202 -0.1555248 0.183732 0.5944807 0.6310325
0.1854853 -0.20968832 0.15844895 0.33414054 -0.21147136 0.3616544 -0.47621053 -0.01911117
-0.09877709 0.11065591 -0.0069663115 0.13706516 0.7425395 -1.1179923 -0.28249764 0.06644518
-0.04364989 0.15841168 -0.33190477 0.36876357 0.527568 -0.35815442 0.38884616 -0.2752087
0.14907546 0.1928766 0.18433672 -0.10697564 -0.046921678 0.20284061 -0.49021575 -0.627993
-0.19792737 -0.013078783 -1.557859 0.47821474 0.810747 -0.7581546 -0.41522184 -0.5452941
-0.13108031 0.16295622 -0.06008903 0.5858732 -0.039633714 0.378361 -0.41021872 -0.15965281
-0.4230244 -0.57896775 -0.05946208 -0.34416762 -0.9408018 0.122043505 -0.84599817 0.15501764
-0.290682 0.029191416 0.09602923 -0.105584435 0.0619361 0.6679697 -0.18465433 0.39319763
00000000: 0ac7 a7bc c942 2dbf 6586 3a3e 8291 6dbf
00000010: 68b6 0dbf 47c9 3dbd 9ce2 a1be 0fd8 803e
00000020: ff23 46bf 770d 92bb 5d8e 61be 7cb7 fcbe
00000030: 25b1 5c3e d2ad 5b3f 4c34 1fbf be7b 193e
00000040: fdf7 9ebd 6eb4 66bf ccc8 6cbf 5e7a 423f
00000050: 306b 2abf 65e5 0f3e d2d8 febe 2326 433e
00000060: 1d8c 29be 706c 17bf 7dc2 1c3f cbed 1cbf
00000070: 82b4 30be f59b f13e 7519 eabd 2fed ecbd
00000080: 8fa3 533d 7044 aabd 8704 713f 47f9 45bf
00000090: 92a0 123f 7d2f 08be 4211 343e 572e c03c
000000a0: f0f4 24bf 9d19 aa3e a7fc e2be 4661 053f
000000b0: 6c02 1cbd af58 91be 63c0 3fbf 4d35 f43e
000000c0: e3cf b8be cb35 f8be b634 7bbe 3187 8d3f
000000d0: 6c4c 5fbf ef7d e6be c4be 0d3f 646e ca3d
000000e0: bb6b b6bd 5e2d 6ebf 5ea4 22bf 6fa5 493e
000000f0: bb38 83be f7d3 453e b222 843e 8a84 0cbf
00000100: 5097 47bf fa79 10bf 0e59 9dbe c85d 09bf
00000110: fe56 02bf deb4 42bf a81f a53e 0b3d 53be
00000120: 1ec1 43bd 29a8 853e 4793 3f3f b6e7 633d
00000130: f871 d6be a748 c0bf 5949 cf3d c04c 223d
00000140: 663f 15be 3c52 d4bc bb49 893e dca5 9dbe
00000150: 1a12 84be b0e8 c33e 3c1b 5ebf 30cb 66bd
00000160: 5ce7 0ebf 7d7d 143f 0bc9 c93d 4d77 8a3e
00000170: c834 743e 2d0b 263f af07 4e3f 88f3 21bd
00000180: 10ec 383f e305 1dbf c581 df3e 1b77 b33e
00000190: 17d1 a2bf 7497 f5bd bf8b 2e3f 39dc 7ebc
000001a0: 8693 883d af06 3a3d 35e0 1e3e 0d02 3fbe
000001b0: 1309 c33e c3a6 6f3f 30db 7a3e 45a6 263f
000001c0: a410 1a3e 7384 0f3f 9a98 043f 6d96 0ebf
000001d0: 38da d43e 5bb4 7d3b 1b09 36bd 89b7 a03c
000001e0: ac34 cb3e 1b20 86bf 40ae bdbe 5d78 88be
000001f0: b313 7f3f e95c b53e 8633 e83e 5f97 ef3e
00000200: 1697 de3e b30e 03bf 2d84 94bd 72ce 16bf
00000210: d01c efbe 3c79 babe c638 8cbf 3000 163f
00000220: b9d5 12bf a794 683f e9b8 2cbe 42a9 10be
00000230: e9a2 bd3e 1d28 a2be 6be8 723e 7321 283f
00000240: 9f51 9fbf 8e1d 1fbf 4b22 50bd 1224 7abf
00000250: f399 693e 5e82 093d 170f 793f 2697 b7be
00000260: 9195 ca3e 168f 4b3d 8463 033e 10c8 673d
00000270: cc92 5d3f 2888 d6be cfd7 423f cbe1 ef3c
00000280: e5f0 5e3e 4376 9fbe d7e8 353f be2f 6e3e
00000290: 111b 4e3e 5775 6bbf 4373 093f 2a7b 083f
000002a0: a753 b7bf b8f2 a2be a958 953f 3d5e 28bf
000002b0: 2c4f 223f 1d5b 6d3d ffa2 903e 1265 9cbe
000002c0: d4df 3bbd ca9a 17bf 3b80 183e 8058 c3bf
000002d0: 6a72 e43c ab60 bf3e 7a7d 88be 7d74 17be
000002e0: 89d4 dd3d 17aa 3cbf de9d 09bf a494 70be
000002f0: e541 1fbe 3e24 3c3e e32f 183f 598b 213f
00000300: dcef 3d3e 89b8 56be 7140 223e 7814 ab3e
00000310: f38b 58be c42a b93e ded1 f3be 078f 9cbc
00000320: a54b cabd 919f e23d a845 e4bb cf5a 0c3e
00000330: 1217 3e3f 5f1a 8fbf 88a3 90be 6914 883d
00000340: 3aca 32bd ac36 223e 6cef a9be 94ce bc3e
00000350: b20e 073f 0460 b7be d816 c73e 28e8 8cbe
00000360: 3da7 183e 7281 453e c4c2 3c3e 0b16 dbbd
00000370: f230 40bd 73b5 4f3e 8ffd fabe 26c4 20bf
00000380: 79ad 4abe 6448 56bc ec67 c7bf 90d8 f43e
00000390: 1e8d 4f3f 6b16 42bf f597 d4be 6598 0bbf
000003a0: eb39 06be ffdd 263e ea1f 76bd c9fb 153f
000003b0: f656 22bd 88b8 c13e 3008 d2be 077c 23be
000003c0: a796 d8be 3b37 14bf 838e 73bd bd36 b0be
000003d0: 63d8 70bf f2f1 f93d 5693 58bf f2bc 1e3e
000003e0: 45d4 94be d622 ef3c f9aa c43d a73c d8bd
000003f0: b5b0 7d3d 1000 2b3f 0616 3dbe 3351 c93e

model.0.weight f4 [60, 1800]
-0.014163078 0.060741067 0.1055256 0.108479455 -0.0401335 -0.06000878 -0.026854595 0.13359238
0.051030964 -0.06441487 0.06690986 -0.020083925 0.15815504 0.008907243 0.06037777 0.15970175
0.23506442 -0.039114326 -0.013590557 0.04806393 -0.046534993 -0.16491339 -0.14216615 -0.104269095
-0.092353344 0.03401744 -0.056490775 -0.03492025 -0.009795793 0.015035546 -0.094223134 -0.080852315
0.064321384 -0.21100646 0.15386611 -0.14047697 -0.0234498 -0.03501139 -0.038159087 -0.004957931
0.006800227 0.09758258 -0.0033745258 0.06522248 -0.0018538649 0.13341294 -0.08925939 0.13660471
0.012360959 -0.12520848 0.02591595 0.03573379 0.032829735 -0.03776051 -0.05907562 -0.04257738
-0.15809521 -0.13705273 -0.08503945 -0.014614326 0.105310746 -0.10485098 -0.02443371 -0.044001814
0.026147954 0.09686113 0.0052992515 -0.17560574 -0.11412148 -0.14064911 -0.032630187 -0.02152637
-0.0208305 0.09294451 -0.08679704 0.010619246 0.023613688 -0.03737608 0.06947658 0.018458031
-0.00019420685 -0.044454888 0.11330203 -0.016135126 -0.08565703 0.13993496 -0.09121721 0.117108606
-0.13800196 0.051661767 -0.14297825 0.115842566 -0.050546966 0.032231934 -0.0446179 -0.0963363
0.0113004 -0.03180458 -0.14399669 -0.032122705 -0.018730596 -0.07347429 -0.17326538 0.12189773
-0.07243492 -0.18741745 -0.05523112 0.055354174 -0.07450533 -0.042855624 0.093580745 -0.036377415
0.015914282 0.014652561 0.057817753 -0.056005843 -0.02745521 -0.16293453 -0.02445764 -0.12201727
0.08732214 -0.14852524 0.1039726 0.0679634 0.014844503 0.05979246 -0.05696779 -0.07139322
0.04847477 0.0017534363 -0.012931787 0.0071288673 -0.064855054 0.089488775 -0.12797093 0.22784965
0.0057420596 0.039506946 0.06036078 0.060941238 0.012744866 -0.15235133 0.051495742 0.04082523
0.008745113 0.022941707 -0.0016260209 -0.10387727 -0.19504417 -0.077127345 0.05872457 -0.07536451
-0.25801173 -0.06558975 0.07353745 0.012326889 0.07830942 -0.026932852 -0.03411181 0.03945691
0.027284643 0.021187037 0.057483193 -0.018257888 -0.072390854 -0.016136775 0.17998855 0.010041117
-0.08409084 0.04806338 -0.048147 -0.07883826 -0.041708443 0.04140095 0.12762363 -0.011595704
0.04410332 0.11149774 0.062711634 -0.106645286 0.0073181903 0.013083043 0.040044144 -0.033202462
-0.105559304 -0.17718367 -0.07769381 0.047659013 0.05691415 0.1552062 -0.01608659 -0.02731452
-0.025086004 -0.17078684 -0.018459972 0.07955262 -0.13669561 -0.058179267 0.035488173 0.022054298
0.054324325 -0.036860786 0.014065156 -0.0191321 -0.037173193 -0.25974715 -0.029079026 0.12674206
-0.085622415 0.048221353 0.08149789 0.08470054 0.04907368 -0.01766541 -0.03999637 0.05022382
-0.11578288 -0.04301082 -0.09700187 -0.10091807 -0.102009915 0.12965485 0.023579545 0.019311536
0.043642115 0.012762334 0.009760957 0.027437301 0.08660491 0.22163345 -0.124294594 0.16966762
0.057215407 -0.048016816 -0.015538691 0.015688993 0.10407488 -0.027122106 -0.03737973 0.01662433
0.03827039 0.05077311 -0.036620174 -0.05523323 0.054216437 -0.10910863 -0.16265863 0.09684212
0.072065234 0.027018271 -0.04448449 -0.027486177 0.024182305 0.0017742661 0.10782419 0.15840377
00000000: 410c 68bc a0cb 783d ce1d d83d 7a2a de3d
00000010: 0663 24bd c4cb 75bd 2bfe dbbc 71cc 083e
00000020: d805 513d f2eb 83bd 0908 893d 0b87 a4bc
00000030: 65f3 213e afef 113c ae4e 773d db88 233e
00000040: bab4 703e 5836 20bd edaa 5ebc afde 443d
00000050: 7a9b 3ebd 0edf 28be 0194 11be 098b d5bd
00000060: c023 bdbd df55 0b3d df62 67bd 8908 0fbd
00000070: 897e 20bc a757 763c 0ff8 c0bd e695 a5bd
00000080: eeba 833d 1412 58be 148f 1d3e 32d9 0fbe
00000090: cc19 c0bc 1a68 0fbd b44c 1cbd 2476 a2bb
000000a0: 70d4 de3b 60d9 c73d 2627 5dbb 5d93 853d
000000b0: 62fd f2ba 679d 083e a1cd b6bd 1be2 0b3e
000000c0: 9f85 4a3c a736 00be b04d d43c 985d 123d
000000d0: 7978 063d c4aa 1abd 47f9 71bd 9e65 2ebd
000000e0: b6e3 21be 8d57 0cbe 2a29 aebd ed70 6fbc
000000f0: 29ad d73d 1cbc d6bd 3429 c8bc 3f3b 34bd
00000100: 3c34 d63c 215f c63d 58a5 ad3b fed1 33be
00000110: 86b8 e9bd 5206 10be 3ba7 05bd 1258 b0bc
00000120: baa4 aabc b159 be3d a6c2 b1bd 59fc 2d3c
00000130: 7e71 c13c a917 19bd bd49 8e3d 4c35 973c
00000140: 01a4 4bb9 5416 36bd e50a e83d d02d 84bc
00000150: f46c afbd 1c4b 0f3e 17d0 babd a3d6 ef3d
00000160: 6350 0dbe 4a9b 533d e468 12be de3e ed3d
00000170: 560a 4fbd a205 043d 42c1 36bd f74b c5bd
00000180: 5025 393c 8545 02bd de73 13be 1993 03bd
00000190: e870 99bc b079 96bd 7b6c 31be 84a5 f93d
000001a0: c258 94bd 5cea 3fbe 073a 62bd 0fbb 623d
000001b0: 4096 98bd 6189 2fbd 43a7 bf3d 7c00 15bd
000001c0: ab5e 823c 4c11 703c 4fd2 6c3d 6266 65bd
000001d0: c0e9 e0bc 4fd8 26be 635b c8bc 31e4 f9bd
000001e0: f3d5 b23d 0017 18be 96ef d43d 6530 8b3d
000001f0: 5c36 733c f0e8 743d 0f57 69bd 9c36 92bd
00000200: 7b8d 463d 8fd3 e53a d9df 53bc 4699 e93b
00000210: bad2 84bd e445 b73d d00a 03be 6b51 693e
00000220: e327 bc3b 09d2 213d de3c 773d 859d 793d
00000230: d8cf 503c fd01 1cbe 33ed 523d 5b38 273d
00000240: aa47 0f3c 3ff0 bb3c 3520 d5ba 9bbd d4bd
00000250: a9b9 47be f1f4 9dbd 2d89 703d b558 9abd
00000260: 1d1a 84be eb53 86bd cd9a 963d b8f6 493c
00000270: b060 a03d 49a2 dcbc d3b8 0bbd 929d 213d
00000280: 0b84 df3c 7090 ad3c 7f73 6b3d 9191 95bc
00000290: a841 94bd 4531 84bc eb4e 383e 7f83 243c
000002a0: d137 acbd 1bde 443d ca35 45bd f475 a1bd
000002b0: 79d6 2abd 0b94 293d c5af 023e e8fb 3dbc
000002c0: afa5 343d ed58 e43d f56e 803d d868 dabd
000002d0: 6ecd ef3b 425a 563c 5405 243d 4eff 07bd
000002e0: 7a2f d8bd a36f 35be ef1d 9fbd 1936 433d
000002f0: d01e 693d 60ee 1e3e 06c8 83bc b3c2 dfbc
00000300: 2a81 cdbc bfe2 2ebe 5e39 97bc 7cec a23d
00000310: eff9 0bbe 624d 6ebd 0c5c 113d 37ab b43c
00000320: 2f83 5e3d 56fb 16bd 8a71 663c ecba 9cbc
00000330: eb42 18bd 94fd 84be 2337 eebc acc8 013e
00000340: ce5a afbd c183 453d 5ee8 a63d 7a77 ad3d
00000350: 7c01 493d 0db7 90bc 3cd3 23bd 7eb7 4d3d
00000360: 931f edbd 1d2c 30bd eba8 c6bd 22ae cebd
00000370: 93ea d0bd 3ec4 043e e429 c13c 3a33 9e3c
00000380: 13c2 323d 1c19 513c 6cec 1f3c 31c4 e03c
00000390: ea5d b13d e1f3 623e 2a8e febd 59bd 2d3e
000003a0: b45a 6a3d 48ad 44bd fe95 7ebc 3486 803c
000003b0: 3625 d53d 2e2f debc 7d1b 19bd bf2f 883c
000003c0: 6ac1 1c3d 77f7 4f3d 09ff 15bd 3d3c 62bd
000003d0: 0e12 5e3d 5874 dfbd fc8f 26be 2955 c63d
000003e0: f096 933d 6c55 dd3c 5e35 36bd b12a e1bc
000003f0: f819 c63c 7e8e e83a eed2 dc3d 9934 223e

model.0.bias f4 [60]
-0.040158574 0.068585046 0.19760159 -0.14604452 -0.23855317 -0.12238794 0.04880283 0.1429621
-0.04521938 0.028337767 -0.023090256 -0.098817766 0.04339565 -0.10292275 0.0028938064 0.10062423
-0.062928475 0.02783215 -0.10023373 0.09800693 0.087917365 -0.10624401 0.16645837 -0.05680999
0.08088107 -0.040560197 0.017027685 -0.007770125 0.19259362 -0.095366925 0.15921074 -0.04243213
-0.037379466 0.0992531 0.15897214 -0.10504957 0.054973144 -0.04449632 0.069160625 0.01527977
-0.1861892 -0.21802498 0.11162572 -0.057057172 0.047256306 -0.10586335 -0.09469266 0.13039923
-0.15459281 -0.07673682 -0.10733653 -0.01528825 0.24780168 -0.13201329 -0.025041075 -0.10979862
0.18935251 0.07337149 0.051881712 0.0050565843
00000000: 517d 24bd 5176 8c3d 1258 4a3e b28c 15be
00000010: 4847 74be 87a6 fabd 7ae5 473d a864 123e
00000020: f537 39bd 9b24 e83c c727 bdbc f860 cabd
00000030: a3bf 313d 2ac9 d2bd 04a6 3d3b 1414 ce3d
00000040: a5e0 80bd 4000 e43c 5847 cdbd dbb7 c83d
00000050: 050e b43d 7696 d9bd 1074 2a3e 98b1 68bd
00000060: f9a4 a53d 7322 26bd a57d 8b3c 889c febb
00000070: 4337 453e bc4f c3bd 2408 233e 50cd 2dbd
00000080: 361b 19bd 3645 cb3d 98c9 223e 3b24 d7bd
00000090: 852b 613d c641 36bd 16a4 8d3d 0058 7a3c
000000a0: 62a8 3ebe f141 5fbe 079c e43d c8b4 69bd
000000b0: d48f 413d e2ce d8bd 3aee c1bd 6087 053e
000000c0: 944d 1ebe 3228 9dbd 41d3 dbbd 917b 7abc
000000d0: b9bf 7d3e 7e2e 07be f122 cdbc 19de e0bd
000000e0: a0e5 413e cb43 963d eb81 543d b4b1 a53b

model.2.weight f4 [60, 60]
-0.2075589 -0.10957056 0.0137474155 0.079173565 -0.03549037 -0.18408063 0.08848301 -0.12410964
0.13312678 0.157171 0.035685483 -0.23958948 -0.014942252 -0.090200365 0.06506662 -0.12894553
-0.006227431 -0.16508588 -0.041366123 -0.012478018 0.075278684 -0.14446203 -0.05259074 0.025797842
0.20298131 0.039336283 -0.4439789 0.14052023 0.14905062 0.29305965 0.1482765 0.07504529
0.08922215 0.10129847 0.115040645 0.13919108 -0.088781275 0.14930755 0.20240025 -0.028959414
-0.04587443 0.011753284 0.112126246 -0.041534297 -0.07840606 0.057487123 -0.14637506 -0.26775345
0.069479614 -0.048071515 -0.06010061 0.2135521 0.25702366 -0.14812882 0.27299342 0.20253815
-0.19307949 -0.10129006 -0.1993494 -0.045013815 0.14210291 0.0903958 -0.04794086 -0.12568904
-0.04158098 -0.018060531 0.025215838 -0.07820015 0.13098882 -0.22452481 0.118554585 -0.09083635
-0.4201856 -0.11467119 0.104196295 0.15760943 0.23206715 0.097031355 0.12099066 0.02581281
-0.23660143 -0.07416591 -0.21619959 0.09200966 -0.10171853 -0.053557266 0.012392005 0.35559425
0.20323339 0.0740673 -0.09582825 -0.093861245 -0.19769849 -0.15672562 -0.14818989 0.047204375
-0.0015758642 -0.10989976 -0.23611642 -0.1484639 0.10349908 -0.09869678 0.080569305 0.10084459
-0.35464796 -0.11328412 -0.03602511 -0.3587439 -0.20214695 0.075729765 -0.027853295 0.112503454
-0.24476282 0.19121478 0.2557712 -0.06850881 -0.050454468 0.084222406 -0.13786726 -0.107953206
0.06899177 -0.08140841 -0.101725005 0.0048474455 -0.043344215 0.063411646 -0.10463039 0.3120238
-0.031951167 0.0022257974 0.25386235 0.20940655 0.32094017 0.2637333 0.00303206 -0.027385091
0.18356214 -0.1655139 0.06351043 -0.1344535 0.19383039 0.24864052 -0.13648587 0.03162806
-0.06047888 -0.1833031 -0.15483919 0.33052963 -0.25312302 -0.13408995 0.1584383 0.033721793
-0.046348996 -0.1801604 0.23571293 0.13128366 -0.15087976 0.04962271 -0.031200007 -0.21811675
-0.049606618 -0.041840587 0.0044687022 0.36511993 0.16914007 0.10518436 -0.066156656 0.14190306
0.22882406 0.27251273 0.13436565 -0.11275563 0.027624596 0.054575056 0.0034671198 -0.0032939794
-0.06436204 0.064379536 -0.05502825 -0.32696635 0.15551206 -0.004330166 0.38626328 -0.1600565
0.06471882 -0.012725498 -0.15017045 0.07287216 -0.28800628 0.1007233 -0.0652978 0.34837943
-0.088596664 0.0329305 -0.14077553 -0.04842045 -0.3519643 0.14340673 0.056128934 0.006731394
0.025566135 0.14106771 -0.046840254 -0.25490823 0.10120077 -0.0081571285 0.2190554 0.013010618
0.20409131 -0.33645147 -0.15780686 -0.20488322 0.24548356 0.27651718 0.13052481 -0.21666221
0.034813322 -0.08176879 0.061725084 -0.10018256 -0.24099281 0.055601995 -0.050241 0.043588866
0.0670481 -0.30678263 0.26141465 0.077641904 -0.0036874874 -0.0016749452 -0.15778363 -0.103582665
-0.14153083 0.09722624 -0.17576171 0.19757162 -0.113849066 -0.21451405 0.024347445 0.16799697
-0.032756668 0.062181026 0.24441023 -0.2387725 -0.102007166 0.042213764 -0.12045763 -0.16851003
0.11050856 0.06307514 0.009512606 0.12429498 -0.36117947 -0.14940713 0.40175062 -0.043282118
00000000: 528a 54be 8866 e0bd d73c 613c c025 a23d
00000010: 5a5e 11bd a27f 3cbe 9536 b53d 322d febd
00000020: 6352 083e 6ff1 203e f12a 123d f256 75be
00000030: 59d0 74bc f8ba b8bd a641 853d 4c0a 04be
00000040: 7a0f ccbb 460c 29be 866f 29bd 9a70 4cbc
00000050: b62b 9a3d dbed 13be 6369 57bd ff55 d33c
00000060: 55da 4f3e 151f 213d 3451 e3be 89e4 0f3e
00000070: baa0 183e ea0b 963e cbd5 173e 58b1 993d
00000080: 1aba b63d 9275 cf3d 6e9a eb3d 1b88 0e3e
00000090: f5d2 b5bd 14e4 183e 0342 4f3e 4b3c edbc
000000a0: d4e6 3bbd d990 403c 72a2 e53d de1f 2abd
000000b0: 5b93 a0bd 9e77 6b3d 58e3 15be fb16 89be
000000c0: 544b 8e3d a3e6 44bd 0f2c 76bd 67ad 5a3e
000000d0: 9b98 833e 15af 17be cbc5 8b3e 2966 4f3e
000000e0: a1b6 45be 2a71 cfbd 4022 4cbe 6860 38bd
000000f0: 6d83 113e 6f21 b93d a35d 44bd a1b4 00be
00000100: d150 2abd aef3 93bc 7291 ce3c 6627 a0bd
00000110: ef21 063e d5e9 65be bfcc f23d 6908 babd
00000120: 9122 d7be bbd8 eabd de64 d53d 5e64 213e
00000130: 03a3 6d3e 60b8 c63d f3c9 f73d 6375 d33c
00000140: a547 72be 4ce4 97bd 6d63 5dbe 906f bc3d
00000150: ce51 d0bd dd5e 5bbd d607 4b3c 7310 b63e
00000160: 6a1c 503e 99b0 973d 9a41 c4bd 533a c0bd
00000170: 7971 4abe ae7c 20be 17bf 17be 6059 413d
00000180: 3a8d ceba 2013 e1bd 81c8 71be ec06 18be
00000190: 53f7 d33d 8a21 cabd 8501 a53d 9c87 ce3d
000001a0: 6b94 b5be 8101 e8bd 118f 13bd 48ad b7be
000001b0: 9cff 4ebe 3518 9b3d 982c e4bc 3668 e63d
000001c0: 1ba3 7abe cfcd 433e 71f4 823e 594e 8cbd
000001d0: 58a9 4ebd cc7c ac3d 132d 0dbe 9216 ddbd
000001e0: 8f4b 8d3d 74b9 a6bd 3355 d0bd 52d7 9e3b
000001f0: b489 31bd f7dd 813d 7548 d6bd 95c1 9f3e
00000200: 3adf 02bd afde 113b 3ffa 813e ac6e 563e
00000210: 4552 a43e 0d08 873e 87b5 463b b356 e0bc
00000220: b7f7 3b3e 7a7c 29be c211 823d 2eae 09be
00000230: 797b 463e 9f9b 7e3e f4c2 0bbe 6d8c 013d
00000240: b4b8 77bd cfb3 3bbe 2a8e 1ebe 2e3b a93e
00000250: 5799 81be e04e 09be a63d 223e dd1f 0a3d
00000260: 72d8 3dbd f87b 38be bb5e 713e 396f 063e
00000270: 3980 1abe 2f41 4b3d 2897 ffbc ff59 5fbe
00000280: 4f30 4bbd 0961 2bbd 316e 923b 00f1 ba3e
00000290: 0e33 2d3e e66a d73d 247d 87bd 094f 113e
000002a0: db50 6a3e ca86 8b3e 2697 093e 6cec e6bd
000002b0: fa4c e23c 188a 5f3d 9e38 633b cedf 57bb
000002c0: 3fd0 83bd 6bd9 833d 4d65 61bd 2268 a7be
000002d0: 8e3e 1f3e 11e4 8dbb 4dc4 c53e dae5 23be
000002e0: 4d8b 843d 9b7e 50bc 48c6 19be 003e 953d
000002f0: 8f75 93be 0448 ce3d daba 85bd ca5e b23e
00000300: 2b72 b5bd 22e2 063d 7627 10be 8654 46bd
00000310: aa34 b4be 37d9 123e 74e7 653d 0793 dc3b
00000320: 1270 d13c 0e74 103e 91db 3fbd 5583 82be
00000330: 5942 cf3d 7aa5 05bc 0f50 603e 7d2a 553c
00000340: 50fd 503e 5e43 acbe 1f98 21be e8cc 51be
00000350: 0b60 7b3e a993 8d3e 4ca8 053e b3dc 5dbe
00000360: 6a98 0e3d 6576 a7bd 71d3 7c3d 842c cdbd
00000370: d2c6 76be ebbe 633d 82c9 4dbd 3d8a 323d
00000380: 8450 893d 9d12 9dbe 24d8 853e b802 9f3d
00000390: c6a9 71bb d689 dbba 0892 21be 2623 d4bd
000003a0: 75ed 10be 8d1e c73d e1fa 33be 3750 4a3e
000003b0: b329 e9bd 92a9 5bbe 4b74 c73c 6607 2c3e
000003c0: db2b 06bd 88b1 7e3d ad46 7a3e c780 74be
000003d0: 22e9 d0bd 57e8 2c3d 7db2 f6bd e58d 2cbe
000003e0: 5052 e23d 8a2d 813d c3da 1b3c 5e8e fe3d
000003f0: 84ec b8be 2ffe 18be 42b2 cd3e 9748 31bd

model.2.bias f4 [60]
0.0053354325 0.10082576 -0.0031391142 -0.015443794 -0.058767755 0.15122381 -0.08576225 0.016262073
-0.024294997 -0.01644216 -0.1855802 0.07786583 0.13512805 -0.0817692 -0.1354561 -0.07242773
0.04760983 -0.19939716 0.08534784 -0.07591631 -0.1710357 -0.20207262 0.019874645 -0.03188403
0.05837145 0.0350599 0.10110077 0.10834317 0.12237562 0.0043836352 -0.010612438 -0.011409729
0.17723376 0.17172143 0.04026079 0.045206204 0.0295345 0.06290703 0.090071075 0.23074903
0.14363076 0.006740949 0.028295595 0.1298357 -0.0003921298 -0.057033595 -0.08498698 0.09014856
0.09459075 -0.015786927 0.06268184 -0.034156494 -0.00703106 0.17797036 -0.05706223 0.031571224
-0.14170685 -0.0062837396 -0.18508434 0.16105704
00000000: dad4 ae3b bc7d ce3d 99b9 4dbb f807 7dbc
00000010: 75b6 70bd 6ada 1a3e 1ea4 afbd 0a38 853c
00000020: 4d06 c7bc b5b1 86bc bc08 3ebe 1f78 9f3d
00000030: 025f 0a3e 9c76 a7bd 01b5 0abe fd54 94bd
00000040: 8602 433d c52e 4cbe d9ca ae3d 037a 9bbd
00000050: fc23 2fbe 20ec 4ebe 27d0 a23c d498 02bd
00000060: e716 6f3d f89a 0f3d ec0d cf3d 06e3 dd3d
00000070: 12a0 fa3d 99a4 8f3b cbdf 2dbc dfef 3abc
00000080: c47c 353e bed7 2f3e 80e8 243d 242a 393d
00000090: 56f2 f13c 67d5 803d 2f77 b83d 7949 6c3e
000000a0: f113 133e 2ee3 dc3b 2acc e73c a6f3 043e
000000b0: c596 cdb9 0f9c 69bd a70d aebd cf9f b83d
000000c0: ccb8 c13d 9653 81bc 565f 803d aee7 0bbd
000000d0: ce64 e6bb dd3d 363e 16ba 69bd d450 013d
000000e0: 9a1b 11be d4e7 cdbb c086 3dbe 23ec 243e

model.4.weight f4 [60, 60]
-0.04209867 -0.09926432 0.10623282 0.15868519 -0.24317563 -0.034935787 -0.20995532 -0.23280783
-0.09705776 0.11417409 0.10917992 -0.039814156 -0.019604165 -0.226393 -0.071192965 -0.15254787
0.03507427 0.11938738 0.15286241 0.16762899 0.047220577 -0.10437662 -0.08658589 0.2165388
0.025728943 -0.07479581 -0.15523131 -0.04033694 -0.0030161166 0.12549786 -0.14797905 -0.014654154
-0.040350057 0.067449294 -0.16020116 0.14596216 0.13905127 -0.16526991 -0.07652403 0.074559845
0.20562576 -0.059186507 -0.011073417 -0.10659833 0.065610036 0.11867462 -0.35029244 -0.10788584
0.30890444 0.19164208 -0.15786946 -0.20907173 0.38132855 -0.08940799 -0.1518054 0.08459691
0.1967323 -0.06798502 -0.10029394 -0.2647381 0.06366785 -0.13959587 0.084457226 -0.08619909
-0.09577464 -0.036633115 0.1306875 0.22509484 0.1862738 -0.1671737 0.10618801 0.13742542
0.07068915 0.05216469 0.15001807 0.18874845 0.074323095 -0.048827816 -0.06475477 0.15496103
0.08190606 0.23958923 -0.00097485 -0.041787174 -0.09263172 0.20038177 0.202178 -0.22594772
0.09738071 -0.16732426 0.13927446 -0.022321727 -0.12320554 -0.24145184 0.15670729 -0.2313755
-0.23293331 0.15189396 -0.18032004 -0.13249762 -0.04333347 0.1306954 -0.17765163 0.026385698
-0.016994946 0.0117782615 0.1339279 0.06678007 -0.14084677 0.07541275 -0.074064106 0.104799874
-0.019333897 -0.12726015 0.09818971 -0.25701505 -0.038071893 0.057960153 -0.022953188 0.1446299
0.08059773 0.21765196 -0.14153169 -0.065600365 0.20194562 0.17954378 0.1303206 -0.058596108
0.12298663 -0.00023787271 0.044144616 0.023138048 0.23540331 0.033751514 7.711274e-05 0.26799566
-0.09047113 -0.042804737 -0.11163634 0.110663004 0.044060092 -0.09185415 0.0960319 -0.11308385
0.16204588 0.16550213 0.107677534 -0.24077258 0.14740586 0.033725396 -0.0450697 -0.052468408
0.19270378 -0.159128 -0.046489857 0.025843022 -0.31588593 0.1574996 0.03079997 0.09263301
-0.0367887 0.24548358 0.049501922 0.32778546 0.25367022 -0.061203107 0.0897229 -0.06277883
-0.1776273 0.060560558 0.05849237 0.26466623 -0.029698359 -0.08989742 -0.006801846 0.06315765
-0.3171597 0.29451817 0.034471642 0.3001253 0.05924615 -0.34329674 0.060035747 0.20082662
-0.13815413 0.2095377 -0.09880291 0.12287901 -0.25938046 -0.15887828 0.25672638 0.13653462
0.0002018916 -0.08839702 -0.13375457 -0.035088718 -0.0027634972 0.063993394 0.14700186 0.07256212
0.08493664 -0.14720908 0.1775065 0.10114811 0.0643314 0.20496427 -0.08301478 -0.19666888
-0.13349171 0.15056986 0.16434568 0.07270048 -0.18502343 -0.06398799 0.11354181 -0.18788573
0.14245006 -0.07110468 0.13595653 0.039950304 0.03954814 0.20656389 0.00012828925 0.07819038
-0.14038 0.059388585 0.058654547 0.020353302 0.062062487 -0.027922096 -0.047558337 0.22652912
0.032699488 -0.20310092 -0.009674712 -0.056738254 0.3758447 -0.11161647 0.09572254 -0.046965238
0.036594514 0.23040923 -0.26012224 0.18233265 0.00709332 -0.0069747106 -0.18405007 -0.0127404155
-0.024027966 0.13094258 -0.103412226 0.06775152 -0.17633504 0.09874365 0.21213107 0.081915885
00000000: a86f 2cbd 184b cbbd 9890 d93d 5f7e 223e
00000010: 0803 79be d418 0fbd 87fe 56be 2d65 6ebe
00000020: 38c6 c6bd 1bd4 e93d b999 df3d 2b14 23bd
00000030: ea98 a0bc 91d3 67be 9ecd 91bd 8235 1cbe
00000040: 0aaa 0f3d 5f81 f43d f787 1c3e efa6 2b3e
00000050: 5d6a 413d 69c3 d5bd f153 b1bd 59bc 5d3e
00000060: 81c5 d23c 8c2e 99bd f5f4 1ebe 5938 25bd
00000070: 0aaa 45bb 8382 003e d287 17be fa17 70bc
00000080: 1a46 25bd db22 8a3d c60b 24be 1b77 153e
00000090: 7563 0e3e 843c 29be a1b8 9cbd d5b2 983d
000000a0: 8f8f 523e 8d6d 72bd 476d 35bc 3a50 dabd
000000b0: 8e5e 863d ae0b f33d 8859 b3be 40f3 dcbd
000000c0: b928 9e3e d23d 443e 88a8 21be e616 56be
000000d0: 7f3d c33e 891b b7bd e072 1bbe 2541 ad3d
000000e0: 3174 493e bb3b 8bbd e966 cdbd c18b 87be
000000f0: 4a64 823d 38f2 0ebe e9f7 ac3d 2689 b0bd
00000100: 7f25 c4bd 9b0c 16bd f2d2 053e 437f 663e
00000110: 8fbe 3e3e 952f 2bbe 1979 d93d 40b9 0c3e
00000120: 79c5 903d a4aa 553d 569e 193e 4647 413e
00000130: b536 983d adff 47bd 269e 84bd 1bae 1e3e
00000140: 5dbe a73d e156 753e 138d 7fba 0729 2bbd
00000150: b3b5 bdbd e130 4d3e c007 4f3e d75e 67be
00000160: 8a6f c73d 0d57 2bbe f79d 0e3e 0edc b6bc
00000170: 3053 fcbd 273f 77be e077 203e b3ed 6cbe
00000180: 1286 6ebe 178a 1b3e d1a5 38be 75ad 07be
00000190: 707e 31bd 04d5 053e 4fea 35be d226 d83c
000001a0: fc38 8bbc 9cf9 403c 6524 093e fdc3 883d
000001b0: 233a 10be 0072 9a3d ecae 97bd 51a1 d63d
000001c0: 1f62 9ebc 7c50 02be b017 c93d 7a97 83be
000001d0: 46f1 1bbd a067 6d3d 5308 bcbc dc19 143e
000001e0: 6c10 a53d 28e0 5e3e afed 10be 7c59 86bd
000001f0: d5ca 4e3e 53da 373e c372 053e 7902 70bd
00000200: 6ae0 fb3d 786d 79b9 fcd0 343d 018c bd3c
00000210: 910d 713e 073f 0a3d 96b7 a138 ba36 893e
00000220: ee48 b9bd 0554 2fbd 98a1 e4bd 49a3 e23d
00000230: 5b78 343d 071e bcbd 5fac c43d 8198 e7bd
00000240: 5bef 253e 6479 293e 0a86 dc3d 168d 76be
00000250: 90f1 163e a423 0a3d 019b 38bd 1de9 56bd
00000260: 2454 453e 73f2 22be 266c 3ebd bfb4 d33c
00000270: cdbb a1be 9347 213e 3850 fc3c 60b6 bd3d
00000280: bfaf 16bd 0c60 7b3e 87c2 4a3d 7fd3 a73e
00000290: 10e1 813e 1cb0 7abd a4c0 b73d 3092 80bd
000002a0: eee3 35be 590e 783d b295 6f3d 5582 873e
000002b0: f949 f3bc 231c b8bd 05e2 debb cc58 813d
000002c0: c262 a2be 16cb 963e 2332 0d3d 06aa 993e
000002d0: 17ac 723d 97c4 afbe 0be8 753d 7ea5 4d3e
000002e0: 4778 0dbe 0d91 563e 2e59 cabd fea7 fb3d
000002f0: 84cd 84be fdb0 22be a471 833e bbcf 0b3e
00000300: ddb2 5339 7f09 b5bd f5f6 08be 30b9 0fbd
00000310: ca1b 35bb f80e 833d a887 163e 739b 943d
00000320: 43f3 ad3d fabd 16be 44c4 353e be26 cf3d
00000330: 2ec0 833d 27e2 513e a703 aabd 9163 49be
00000340: 0db2 08be fc2e 1a3e 3c4a 283e fde3 943d
00000350: c876 3dbe 230c 83bd 9c88 e83d 1e65 40be
00000360: 6ede 113e 559f 91bd 3038 0b3e eea2 233d
00000370: 3bfd 213d 7c85 533e 6285 0639 4722 a03d
00000380: c6bf 0fbe 7241 733d c03f 703d f8bb a63c
00000390: 3c35 7e3d e1bc e4bc 88cc 42bd 40f7 673e
000003a0: e6ef 053d b0f9 4fbe af82 1ebc 5f66 68bd
000003b0: b76e c03e 2d97 e4bd 2e0a c43d 9f5e 40bd
000003c0: 21e4 153d 66f0 6b3e be2e 85be 69b5 3a3e
000003d0: 156f e83b 1d8c e4bb 9f77 3cbe 2dbd 50bc
000003e0: 4cd6 c4bc d015 063e cac9 d3bd 4fc1 8a3d
000003f0: 2c91 34be 1c3a ca3d e338 593e 84c3 a73d

model.4.bias f4 [60]
-0.10787163 -0.23073317 -0.016438212 -0.220233 0.1881585 -0.040927883 0.10203302 0.027339717
-0.18513414 0.28197137 -0.17951767 0.052713837 0.17016745 -0.06837448 0.18784052 -0.113799885
-0.00034395102 -0.01321162 0.19433358 0.11345724 0.068039946 -0.01272109 0.0763268 -0.21882734
0.17494796 -0.2440846 0.3256366 -0.16574703 0.34777048 0.040523034 -0.2188809 0.13891181
0.10097141 0.22667468 -0.10102506 0.010487745 -0.30025473 -0.20654786 -0.03749296 0.051342446
-0.0592766 0.04085426 0.059286248 0.01564955 0.2420579 -0.048017375 -0.14509334 0.07447382
-0.26603475 -0.09246912 0.1696003 -0.054167062 0.17744018 0.08472775 0.17183192 0.25396425
-0.034489073 -0.028100168 0.064941265 0.04202877
00000000: cdeb dcbd 5145 6cbe 6ea9 86bc c284 61be
00000010: 9fac 403e ffa3 27bd b0f6 d03d 8bf7 df3c
00000020: ce93 3dbe 8d5e 903e 7bd3 37be 77ea 573d
00000030: 6040 2e3e eb07 8cbd 4459 403e ea0f e9bd
00000040: 5354 b4b9 8d75 58bc 62ff 463e 455c e83d
00000050: 8758 8b3d 1e6c 50bc 3a51 9c3d 4614 60be
00000060: 8f25 333e 50f1 79be d7b9 a63e 97b9 29be
00000070: f90e b23e 7bfb 253d 5122 60be e63e 0e3e
00000080: 19ca ce3d 681d 683e 3ae6 cebd cad4 2b3c
00000090: fdba 99be 4881 53be 3892 19bd 754c 523d
000000a0: 05cc 72bd cc56 273d 23d6 723d 7c33 803c
000000b0: 07de 773e dead 44bd 5993 14be bb85 983d
000000c0: b535 88be 7360 bdbd b3ab 2d3e 48de 5dbd
000000d0: e1b2 353e be85 ad3d b5f4 2f3e 9a07 823e
000000e0: 6a44 0dbd 5332 e6bc edff 843d 5c26 2c3d

model.6.weight f4 [60, 60]
-0.089027986 0.21615219 0.06864473 0.08776114 0.022498682 -0.06398117 0.21027832 0.17053278
-0.08940716 -0.21153095 0.10556806 0.13368118 -0.08884654 0.06378311 0.001992399 -0.010258463
-0.18443748 0.17376153 -0.1603778 0.20315337 -0.15881199 0.26454088 -0.09577484 0.25329694
-0.037192263 -0.03291435 0.00037705887 0.14407434 -0.1312406 -0.08478575 -0.15832762 0.27248663
-0.044505592 -0.020616144 -0.05928966 0.021527724 -0.10795155 0.14994076 0.0783191 0.016685572
-0.03567776 -0.14875016 0.052526057 -0.037914 -0.30137733 0.23897058 0.049715437 0.08034558
0.257455 -0.20016293 0.101532444 0.13735078 0.010101507 -0.22931457 -0.3228724 -0.15524809
0.09938027 -0.045935314 -0.027565874 0.2677313 -0.08572621 0.007882286 0.15535522 -0.071857445
-0.020060189 0.1015824 0.0031000802 -0.03634126 0.0055890935 -0.04532233 0.14990388 -0.2148055
-0.02991565 0.25142312 -0.0519576 0.027927784 0.36097074 -0.1038118 -0.09604408 -0.029578216
0.17308986 -0.18663494 0.02032447 -0.13247512 0.066862814 -0.008125302 0.14159495 -0.026606826
0.14541401 0.04791454 -0.037788074 0.3545904 0.09920573 0.14100444 -0.17500216 0.39527383
-0.13220547 -0.0564756 0.066974886 0.0077757356 -0.0136289345 -0.2246548 0.03915686 0.15665379
0.063325614 0.027426241 -0.10310684 0.21336876 0.023486095 -0.051457968 -0.07552651 0.15141559
0.20292437 0.048075363 -0.051066164 0.3224732 -0.07906473 0.23557538 -0.50787485 0.25200757
-0.15618078 0.07020165 -0.030511923 -0.05610079 0.031118585 -0.0335176 0.022571513 -0.055030584
0.0012288955 -0.15303794 0.1836631 -0.25179586 -0.23729053 0.030503059 -0.19401059 -0.09268075
0.011912622 -0.029522052 -0.104503684 0.11840955 -0.14486925 0.028448774 0.091617994 0.4047254
-0.060966592 0.24116197 0.102482356 0.22755389 -0.22139776 -0.079500675 0.16700861 0.068353824
-0.2309378 -0.3470501 -0.14531581 -0.094460614 -0.056323167 0.3100844 0.12109242 -0.16232826
0.054604772 0.0989762 -0.21678229 0.023027912 -0.0046590953 0.072875395 -0.1310091 -0.16708331
0.10048168 -0.2209276 -0.17826097 -0.061846744 -0.07666278 -0.01708388 0.0059854276 -0.102799095
0.070041336 -0.028447451 -0.009532262 0.056468934 0.062121294 0.12717272 0.10770754 0.37755015
0.0024756545 -0.07715377 0.051308647 0.13103381 0.05510768 0.48489323 -0.07690166 0.04242083
0.046063576 -0.3417681 -0.042932365 0.13761622 0.1057042 -0.22215664 0.025673876 0.095111616
-0.095024586 -0.18559231 -0.08868651 0.004470315 0.14530207 -0.04275395 0.11398262 -0.30438963
0.22906154 -0.048880268 0.05084809 0.05308929 -0.018373972 -0.01118597 0.02483787 0.22453214
-0.03381973 0.056795366 0.023152076 0.28234765 0.3405547 -0.3027249 0.20237786 0.06469671
-0.0842014 -0.043958977 0.2116065 0.1743953 0.15671404 0.3376511 0.0013330991 0.21936226
0.048636127 -0.20675738 0.110953264 0.10043462 -0.23573077 0.039387967 -0.03531216 -0.19742036
0.0494307 0.0065418812 0.12125469 0.05371746 -0.1763085 -0.115917444 0.24051623 0.23606463
-0.067335784 0.030052708 -0.24386133 0.17271712 -0.05590463 -0.13085172 0.19389553 0.10351313
00000000: 4e54 b6bd 0057 5d3e 9c95 8c3d 1dbc b33d
00000010: 284f b83c 8f08 83bd 3353 573e 25a0 2e3e
00000020: 1a1b b7bd 929b 58be 1134 d83d b8e3 083e
00000030: 2df5 b5bd b8a0 823d e992 023b 1d13 28bc
00000040: 2edd 3cbe 8bee 313e 143a 24be 7007 503e
00000050: 9c9f 22be e771 873e 9925 c4bd 23b0 813e
00000060: ea56 18bd 33d1 06bd fcaf c539 3988 133e
00000070: f063 06be 27a4 adbd a320 22be 5e83 8b3e
00000080: 7f4b 36bd 30e3 a8bc b7d9 72bd e95a b03c
00000090: b415 ddbd 128a 193e c465 a03d 2eb0 883c
000000a0: d822 12bd f651 18be 9025 573d b64b 1bbd
000000b0: 214e 9abe b4b4 743e 6aa2 4b3d 398c a43d
000000c0: 24d1 833e 83f7 4cbe 3ef0 cf3d afa5 0c3e
000000d0: cb80 253c 70d1 6abe 884f a5be 5bf9 1ebe
000000e0: e287 cb3d ab26 3cbd d4d1 e1bc 1414 893e
000000f0: 3991 afbd b424 013c 7015 1f3e ff29 93bd
00000100: 4455 a4bc 6f0a d03d b72a 4b3b 93da 14bd
00000110: b724 b73b e8a3 39bd 6780 193e f9f5 5bbe
00000120: aa11 f5bc 88ba 803e 7ed1 54bd cfc8 e43c
00000130: 28d1 b83e 489b d4bd c2b2 c4bd 044e f2bc
00000140: 783e 313e 3b1d 3fbe 817f a63c 8fa7 07be
00000150: 5fef 883d fd1f 05bc 44fe 103e 8ff6 d9bc
00000160: 69e7 143e 0942 443d abc7 1abd df8c b53e
00000170: 602c cb3d 7863 103e c433 33be 5561 ca3e
00000180: df60 07be f552 67bd 212a 893d 99cb fe3b
00000190: e54b 5fbc e80b 66be f262 203d da69 203e
000001a0: dcb0 813d ffac e03c ae29 d3bd 577d 5a3e
000001b0: e965 c03c 97c5 52bd a5ad 9abd b00c 1b3e
000001c0: 68cb 4f3e acea 443d c12a 51bd 351b a53e
000001d0: b0ec a1bd ac3a 713e 1604 02bf 2307 813e
000001e0: dbed 1fbe e2c5 8f3d 24f4 f9bc f1c9 65bd
000001f0: 67ec fe3c c049 09bd e5e7 b83c c067 61bd
00000200: e412 a13a fab5 1cbe 2e12 3c3e 63eb 80be
00000210: 4afc 72be 8de1 f93c b6aa 46be 68cf bdbd
00000220: 282d 433c 3bd8 f1bc 0706 d6bd b580 f23d
00000230: 9b58 14be 670d e93c 37a2 bb3d 2b38 cf3e
00000240: 1bb8 79bd 2af3 763e 45e2 d13d e303 693e
00000250: 18b6 62be 40d1 a2bd 4e04 2b3e 17fd 8b3d
00000260: f57a 6cbe 8db0 b1be abcd 14be 9174 c1bd
00000270: 1fb3 66bd 62c3 9e3e 4dff f73d 6139 26be
00000280: 41a9 5f3d 09b4 ca3d 2dfc 5dbe 08a5 bc3c
00000290: 53ab 98bb b23f 953d 4027 06be e317 2bbe
000002a0: 57c9 cd3d d83a 62be 0b8a 36be 0353 7dbd
000002b0: 6001 9dbd 7ef3 8bbc 6821 c43b 5588 d2bd
000002c0: d571 8f3d a10a e9bc 342d 1cbc f84b 673d
000002d0: e672 7e3d 9139 023e c595 dc3d 414e c13e
000002e0: 973e 223b cc02 9ebd 0429 523d ba2d 063e
000002f0: 97b8 613d ed43 f83e 9e7e 9dbd 77c1 2d3d
00000300: 29ad 3c3d 3afc aebe d9d9 2fbd 44eb 0c3e
00000310: 727b d83d 087d 63be 0552 d23c e1c9 c23d
00000320: 409c c2bd e90b 3ebe 46a1 b5bd b87b 923b
00000330: 11ca 143e c41e 2fbd b86f e93d f5d8 9bbe
00000340: 1c8f 6a3e ad36 48bd 1646 503d 2874 593d
00000350: 0385 96bc 5c45 37bc ca78 cb3c c1eb 653e
00000360: 8f86 0abd 42a2 683d 6ca9 bd3c df8f 903e
00000370: 305d ae3e c2fe 9abe 243c 4f3e b57f 843d
00000380: c971 acbd 540e 34bd 60af 583e ae94 323e
00000390: a579 203e 9be0 ac3e 62bb ae3a 80a0 603e
000003a0: ad36 473d 35b8 53be 773b e33d abb0 cd3d
000003b0: 6863 71be 4755 213d 7ca3 10bd 9028 4abe
000003c0: d877 4a3d 475d d63b 6154 f83d d706 5c3d
000003d0: 378a 34be 2066 edbd e349 763e edba 713e
000003e0: 58e7 89bd 1931 f63c c9b6 79be c2dc 303e
000003f0: 41fc 64bd fefd 05be 8d8c 463e b1fe d33d

model.6.bias f4 [60]
-0.20716612 0.2547626 -0.2648088 0.07361374 0.1463255 0.24750116 0.15877093 0.16962935
-0.113429375 0.10014364 -0.14676169 0.10949074 -0.20027688 -0.29752815 -0.068568036 0.22400483
0.31982088 -0.23811051 -0.024529923 0.026712256 -0.11793623 0.1776608 -0.03792212 -0.13719516
-0.015218511 0.04453855 -0.16093975 -0.21998078 0.0072845537 0.18716726 -0.3267637 0.064435944
0.1655426 -0.08175751 -0.13708408 0.00863955 -0.28401348 -0.20778221 0.048145425 -0.29430923
0.29199496 -0.22033623 0.28136402 0.21449581 0.12839627 0.32532614 -0.060600165 0.005345904
-0.004243703 0.19360325 0.14496928 -0.16955991 0.10063483 0.23112778 0.005683727 0.11334075
0.044911258 0.14248054 -0.22595292 -0.2758957
00000000: 5b23 54be 3e70 823e 0595 87be cdc2 963d
00000010: 5ad6 153e f270 7d3e d994 223e 51b3 2d3e
00000020: a94d e8bd 1c18 cd3d b248 16be ae3c e03d
00000030: 6215 4dbe 9c55 98be 666d 8cbd 8661 653e
00000040: 90bf a33e 3ed3 73be faf2 c8bc a9d3 da3c
00000050: 8d88 f1bd b6ec 353e 3a54 1bbd e37c 0cbe
00000060: 1057 79bc 0e6e 363d 64cd 24be a442 61be
00000070: 44b3 ee3b c6a8 3f3e 924d a7be fef6 833d
00000080: 0084 293e 7b70 a7bd c55f 0cbe e68c 0d3c
00000090: 376a 91be dcc4 54be 2334 453d b3af 96be
000000a0: 5d80 953e d29f 61be f20e 903e caa4 5b3e
000000b0: 507a 033e 2691 a63e e137 78bd b12c af3b
000000c0: c30e 8bbb ee3f 463e d472 143e 1da1 2dbe
000000d0: a219 ce3d c3ac 6c3e 8f3e ba3b 321f e83d
000000e0: def4 373d 6be6 113e 3460 67be 3442 8dbe

model.8.weight f4 [60, 60]
-0.25111687 0.35456294 0.07866543 0.18168056 -0.07382756 -0.16483559 0.3261475 -0.114380136
-0.20176376 -0.14768137 -0.10083247 -0.17537892 0.23628622 -0.12375906 -0.07859544 -0.15689434
0.22008362 0.03885805 -0.00086747773 -0.13826694 -0.18983166 0.12877493 -0.15989879 -0.21051526
0.13096578 -0.055890586 0.019586464 0.16130532 -0.083652325 0.36154482 -0.16224457 -0.0566888
0.2641366 0.14823768 -0.17055567 -0.061587937 -0.29483384 -0.1122222 0.09893366 -0.058202628
0.13743208 -0.13235864 0.13914566 -0.08319358 -0.046786126 -0.095784664 0.037783075 -0.24661219
0.09982059 0.13754185 0.21033312 -0.16287088 0.29704964 -0.06579506 0.12530805 0.014247355
-0.10432872 0.082547456 0.0037429489 0.12143343 0.055899423 -0.30535465 0.16261914 0.00073725916
0.11688241 0.02628439 0.09933351 0.057750832 0.047074564 -0.12332177 0.072222136 0.19190148
-0.022425648 0.063070096 0.24875654 -0.048577968 -0.0582923 0.18836723 -0.07545339 -0.15293697
0.08605263 -0.2044048 0.13848871 0.15219831 -0.07368515 -0.08922857 0.06952127 0.041701317
0.46536827 -0.1590539 0.092829354 0.11372888 -0.040550746 -0.01778498 0.012915687 0.043037303
0.17733909 -0.011972678 0.17532687 0.04865571 -0.3450181 0.14159831 -0.12154038 -0.015757853
-0.48789605 -0.3780338 0.12598841 0.1322783 0.18927643 -0.023067595 -0.011101326 0.23709027
0.010479974 0.009062599 0.03954352 0.18318354 -0.24460831 0.0017529209 0.1097928 -0.029686432
0.2349212 0.3145644 -0.18523972 0.22125822 0.02312413 0.083521925 0.09114055 0.16901809
-0.4698502 0.17981705 -0.047422677 -0.12673463 0.050203633 0.04116844 -0.007819733 -0.10751192
0.4585209 -0.035794474 0.09028709 0.51839453 0.07097021 0.0018998603 0.13735789 0.03863983
0.097486936 -0.04548665 -0.036005456 -0.13406776 -0.22888766 -0.075211935 -0.4682612 -0.23351805
-0.11386871 0.13721493 0.02288866 0.09429531 -0.30880272 -0.08942592 -0.3912535 -0.34336144
0.1800745 -0.25642952 0.09618653 0.23171134 0.059683435 0.061077103 -0.16976193 -0.023973523
0.15409182 -0.12525745 -0.13443267 0.027935792 -0.10992791 0.07365678 0.05546291 -0.099001825
0.13879971 0.0051604332 -0.24543118 0.15767862 0.19276325 -0.047777746 0.38184318 0.005957886
-0.08116723 0.100928 0.19587152 0.09256674 -0.10415843 0.11658505 0.14017755 0.04348436
-0.11274661 0.16157374 -0.10523658 -0.2341887 -0.1999634 0.18604966 0.058676925 -0.1462381
0.035391882 0.025529291 0.024535013 0.27858287 0.19673212 -0.31814468 0.4119031 0.17921256
0.13598655 -0.015509294 0.1363425 0.37987515 -0.057839 0.036068153 0.27226114 -0.059006263
-0.051347245 0.15236615 0.039841633 -0.014761577 -0.26724672 0.09661743 -0.2221956 0.019927356
-0.14486058 -0.38697916 -0.025177503 -0.190612 0.05232871 -0.09880164 -0.2164181 -0.0061296397
-0.15334874 0.050832007 0.14130828 0.2251778 -0.22251937 0.079626404 0.12571013 0.33452573
0.115321904 -0.06675577 -0.25890872 -0.23804416 0.17116164 0.07747499 -0.16313034 0.007566015
-0.07236192 0.47374535 -0.12480258 0.06916725 -0.13113049 -0.19648197 0.22979195 0.49915823
00000000: 6492 80be 4689 b53e 571b a13d 780a 3a3e
00000010: e732 97bd a9ca 28be cefc a63e 2240 eabd
00000020: 299b 4ebe c939 17be 4181 cebd 8896 33be
00000030: 04f5 713e 6475 fdbd a5f6 a0bd e9a8 20be
00000040: 9a5d 613e 9e29 1f3d 7267 63ba d995 0dbe
00000050: 3b63 42be 93dd 033e 82bc 23be 5091 57be
00000060: e51b 063e 87ed 64bd cb73 a03c 392d 253e
00000070: e951 abbd 671c b93e 7123 26be 8432 68bd
00000080: ea3c 873e 9ecb 173e 25a6 2ebe a243 7cbd
00000090: 76f4 96be c1d4 e5bd bb9d ca3d e165 6ebd
000000a0: ffba 0c3e 0689 07be 337c 0e3e 6561 aabd
000000b0: cfa2 3fbd c02a c4bd 6dc2 1a3d e887 7cbe
000000c0: bd6e cc3d c5d7 0c3e 9161 573e a0c7 26be
000000d0: e416 983e 8fbf 86bd c150 003e bd6d 693c
000000e0: 4caa d5bd a40e a93d 434c 753b 17b2 f83d
000000f0: cbf6 643d 7257 9cbe a285 263e a044 413a
00000100: 0c60 ef3d 5c52 d73c 5e6f cb3d 238c 6c3d
00000110: 42d1 403d 2090 fcbd 33e9 933d d281 443e
00000120: feb5 b7bc e52a 813d 09ba 7e3e b1f9 46bd
00000130: e8c3 6ebd 57e3 403e 4f87 9abd 829b 1cbe
00000140: 5c3c b03d 7e4f 51be fccf 0d3e e0d9 1b3e
00000150: 3de8 96bd 78bd b6bd 2b61 8e3d 00cf 2a3d
00000160: c044 ee3e 07df 22be 511d be3d b0ea e83d
00000170: 8a18 26bd ceb1 91bc 519c 533c e247 303d
00000180: 6198 353e 0d29 44bc e388 333e 364b 473d
00000190: 36a6 b0be 26ff 103e 2aea f8bd 9d16 81bc
000001a0: 83cd f9be a58d c1be 1b03 013e f673 073e
000001b0: aed1 413e 41f8 bcbc 56e2 35bc cbc7 723e
000001c0: 32b4 2b3c 4c7b 143c 63f8 213d 7794 3b3e
000001d0: 9a7a 7abe 44c2 e53a 0cdb e03d f630 f3bc
000001e0: 2f8f 703e 960e a13e 7baf 3dbe 8491 623e
000001f0: d16e bd3c 8b0d ab3d e6a7 ba3d 1413 2d3e
00000200: 3590 f0be f621 383e 483e 42bd b9c6 01be
00000210: 53a2 4d3d 3da0 283d 561e 00bc 362f dcbd
00000220: 40c3 ea3e 3a9d 12bd 70e8 b83d 81b5 043f
00000230: d458 913d bc04 f93a 8ca7 0c3e cc44 1e3d
00000240: 3ba7 c73d 3650 3abd 757a 13bd 0f49 09be
00000250: 8761 6abe b708 9abd efbf efbe 5b1f 6fbe
00000260: 0034 e9bd 1282 0c3e 0081 bb3c e61d c13d
00000270: 641b 9ebe f024 b7bd 6152 c8be 12cd afbe
00000280: 7365 383e bb4a 83be 72fd c43d bd45 6d3e
00000290: 9e76 743d fc2b 7a3d 12d6 2dbe 1f64 c4bc
000002a0: 3fca 1d3e 7d43 00be b8a8 09be 9ad9 e43c
000002b0: e221 e1bd 5ed9 963d 142d 633d 78c1 cabd
000002c0: 8321 0e3e da18 a93b 5052 7bbe 8176 213e
000002d0: bb63 453e 99b2 43bd f380 c33e 5f3a c33b
000002e0: 013b a6bd 57b3 ce3d 8b92 483e a293 bd3d
000002f0: 0451 d5bd 25c4 ee3d b48a 0f3e a81c 323d
00000300: b2e7 e6bd 9673 253e 4786 d7bd 2acf 6fbe
00000310: 35c3 4cbe cd83 3e3e 3757 703d 71bf 15be
00000320: 14f7 103d ce22 d13c a7fd c83c 6aa2 8e3e
00000330: 2574 493e dce3 a2be f7e4 d23e 7f83 373e
00000340: 0f40 0b3e b21a 7ebc 5e9d 0b3e ff7e c23e
00000350: 96e8 6cbd 33bc 133d d065 8b3e 8db0 71bd
00000360: 7d51 52bd df05 1c3e fb30 233d 8bda 71bc
00000370: 90d4 88be 5cdf c53d 3e87 63be b23e a33c
00000380: 5556 14be 2222 c6be 0d41 cebc cb2f 43be
00000390: a156 563d 8458 cabd b59c 5dbe 25db c8bb
000003a0: 7407 1dbe 3935 503d 1eb3 103e 0295 663e
000003b0: 1edc 63be 2b13 a33d 28ba 003e f546 ab3e
000003c0: e42d ec3d 40b7 88bd af8f 84be d9c1 73be
000003d0: ff44 2f3e 35ab 9e3d a40b 27be 55ec f73b
000003e0: 7c32 94bd c08e f23e 7f98 ffbd 8fa7 8d3d
000003f0: 1247 06be 9232 49be 954e 6b3e ab91 ff3e

model.8.bias f4 [60]
0.08784267 -0.27425984 0.2771316 -0.25690535 -0.037090816 -0.0999102 0.24929065 0.19736187
-0.033397436 -0.2762485 0.054560706 0.11749419 0.09474166 -0.14281705 -0.32975203 -0.057278067
-0.007974361 -0.2894314 -0.025999147 -0.25192437 0.28277442 0.019634457 -0.12151339 0.021311086
0.19707406 0.09308607 -0.17058222 0.00802825 -0.11228678 -0.25653753 0.043147538 -0.10936134
-0.20945466 0.12806872 0.18614024 -0.17138773 -0.051870186 -0.21590167 -0.13291368 0.17648627
-0.26816735 -0.04258496 -0.33081096 -0.33611596 -0.0098051485 0.25160724 -0.3140675 -0.1386234
-0.29722163 -0.17868733 0.33502337 -0.2051801 -0.16772862 0.2164188 0.009579074 0.08471593
-0.20097335 -0.068749264 -0.0009565802 0.014186455
00000000: dce6 b33d c96b 8cbe 31e4 8d3e 1989 83be
00000010: 8aec 17bd b89d ccbd 0c46 7f3e 3b19 4a3e
00000020: c0cb 08bd 7270 8dbe 0c7b 5f3d cba0 f03d
00000030: ea07 c23d a23e 12be 42d5 a8be 689c 6abd
00000040: e5a6 02bc 5a30 94be 2afc d4bc 3bfc 80be
00000050: cfc7 903e 71d8 a03c 03dc f8bd 9694 ae3c
00000060: c8cd 493e e9a3 be3d 1bad 2ebe ec88 033c
00000070: 9cf6 e5bd e358 83be 79bb 303d d7f8 dfbd
00000080: 487b 56be 7224 033e 8c9b 3e3e 4480 2fbe
00000090: d575 54bd 5415 5dbe 861a 08be d1b8 343e
000000a0: 3b4d 89be 916d 2ebd 0e60 a9be 6417 acbe
000000b0: c6a5 20bc aad2 803e 75cd a0be 4bf3 0dbe
000000c0: 6f2d 98be d0f9 36be 2f88 ab3e bb1a 52be
000000d0: 0dc1 2bbe e49c 5d3e 8cf1 1c3c 8c7f ad3d
000000e0: f5cb 4dbe 6acc 8cbd 03c3 7aba 4e6e 683c
